workspace/suphx-reward-shaping/weights/numpy/weights_no_logistic_TD_7_layer_2.npy (npy, 640 bytes, 1 tensors)

array f4 [32, 4]
000000 0b 05 58 3f 2d 74 0e be b6 27 3e 3e 5f 76 05 be
       0.84382695 -0.13911505 0.18569836 -0.13033436
000010 f8 d7 3f be 30 1c 10 bd cf 16 a1 bd d1 84 5d be
       -0.1873473 -0.03518313 -0.078656785 -0.21632697
000020 35 2d 8e 3e 3e 14 f4 3e 27 6d de 3d 1b bb 5d 3e
       0.27768865 0.47671694 0.10860663 0.21653406
000030 c6 a3 bf 3e b4 84 8d 3c f7 25 5b 3e a3 1a 09 3e
       0.37429637 0.017275192 0.21401201 0.13389067
000040 b3 2c c1 3e 7b b8 90 be 96 86 55 be be 35 f5 3d
       0.37729415 -0.28265747 -0.20852122 0.11973141
000050 4f e6 1b 3f 33 e1 3c 3e f0 b8 13 bf 75 eb d3 bd
       0.608983 0.18445282 -0.5770407 -0.10347644
000060 20 68 22 be 19 03 7a 3e be ca f0 bd 60 5f a1 3e
       -0.15860033 0.24415244 -0.1175742 0.31518078
000070 b0 50 9c be 5e be 6e 3d 9b 8d fd 3e 42 11 22 be
       -0.3053031 0.058287017 0.495221 -0.15826896
000080 d0 55 97 3e 91 f9 f7 bd ca 75 4d bd 9d 74 10 bf
       0.29557657 -0.12108148 -0.05016116 -0.5642794
000090 c2 d7 1d 3e e3 df 2a bf 8f e5 b8 3e c9 d0 0a be
       0.15414336 -0.66747874 0.3611264 -0.13556208
0000a0 12 a5 76 39 a2 94 aa 3e 9f df a2 be 20 90 45 be
       0.00023521882 0.33316523 -0.31811234 -0.1929326
0000b0 8a 06 7b 3e da f0 cb bc a3 4e 22 bf 8c f1 a9 3d
       0.24514213 -0.02489512 -0.6340124 0.082980245
0000c0 c2 03 40 be 77 ea 83 be b5 19 fc 3e 5e c5 80 3d
       -0.18751433 -0.2576482 0.49238363 0.06287645
0000d0 a4 8d ab 3e 90 27 be be 5c 32 ac be 51 85 ca bc
       0.335065 -0.3713956 -0.3363217 -0.024721773
0000e0 db 6e 68 be c9 18 84 3e 43 ac d4 be 25 41 58 3e
       -0.22698538 0.2580016 -0.41537675 0.211186
0000f0 28 36 80 bd 07 db 85 3e 8f 57 63 3e 48 90 d6 3c
       -0.062603295 0.26143667 0.2220137 0.026191846
000100 50 03 01 3d a2 01 19 be 91 e1 73 3e 3f 5f 31 be
       0.0314973 -0.14942029 0.23816516 -0.1732149
000110 21 46 fa 3d d0 14 54 be 73 ae 99 3e fe f8 a2 3e
       0.12220407 -0.20711064 0.30015907 0.3183059
000120 28 2e 87 3e 5f 59 c1 3e 41 d6 d2 3e 11 4d d9 bc
       0.26402402 0.37763497 0.41179088 -0.026526006
000130 52 4a 6e 3d 9f 3a a3 3e ea 21 b5 be 11 bc 88 be
       0.058176346 0.31880662 -0.35377437 -0.26705983
000140 e9 03 44 3e ee 57 20 3e 8c 14 5a 3d 27 40 56 3d
       0.19142117 0.15658543 0.05324225 0.052307274
000150 fb 17 ca be 92 8a a6 be 1b c3 cd be 5a 84 a3 3e
       -0.3947142 -0.32527596 -0.40187916 0.31936914
000160 81 4c 61 be eb 21 18 3e e3 95 a1 be 95 1c 35 3e
       -0.2200184 0.14856689 -0.31559667 0.17686684
000170 3e 08 93 be 19 a3 4b be d2 26 a6 3e a9 13 28 be
       -0.28717226 -0.19886436 0.32451493 -0.1641375
000180 ed b3 f7 be fa e7 03 3f 8e 1b 95 3d 08 09 28 3e
       -0.4837946 0.51525843 0.07280646 0.16409695
000190 e8 a9 0e 3e 44 b2 27 bf 9a 12 e5 3c 31 6e 2f 3f
       0.13932002 -0.65506387 0.027962971 0.68527514
0001a0 06 b6 8e 3e b8 59 14 3d 72 30 44 bf 66 d5 26 3f
       0.27873248 0.036218375 -0.7663642 0.6516937
0001b0 3f a2 59 3d cc 0e fe bd 10 16 6b 3f 52 dd 47 bf
       0.053133246 -0.12405166 0.9183054 -0.78072083
0001c0 dd 33 62 3e bc 48 0b 3e f3 ab eb 3e db 87 73 bf
       0.22090097 0.13601965 0.46029624 -0.95129174
0001d0 de 2d 1f 3e bd c8 2b 3f 44 8e 7f 3d f3 41 1d bf
       0.1554484 0.6710318 0.062391534 -0.61428756
0001e0 8b 56 82 be 3e d6 c4 be fc 3a 15 3e 5a ba 84 3e
       -0.25456652 -0.38444704 0.14573282 0.25923425
0001f0 31 4a 57 3f 3a 36 68 bf 9d 1f e2 3d 01 d1 5e bd
       0.8409758 -0.90707743 0.11041186 -0.05439854
