workspace/suphx-reward-shaping/weights/numpy/weights_no_logistic_TD_6_layer_1.npy (npy, 4224 bytes, 1 tensors)

array f4 [32, 32]
00000000: 7f45 163f 0b17 39be 358d 6dbf 058e 213f
00000010: 8970 a2be 110b 5c3e 55df d9be 63ad 46bf
00000020: 5e72 fdbe 217c 133e d03f 26bf f029 603f
00000030: 5225 d23c 13d8 c23d 470d ebbe d431 6ebf
00000040: 9453 c33c 2b4a 393f 35e2 60be 3205 5ebd
00000050: 0f2a adbe cc8b 1cbe e50f 19be 2fd8 2f3d
00000060: 8c01 a9bc 64ed 6b3f 9fa7 e53d 9a8d 19be
00000070: 1211 54be b435 10be cf54 a2bd a0f3 0ebe
00000080: 2d13 7a3e 222d 8f3e 485b 8ebe 97e5 0bbe
00000090: 4c27 2cbe 6fe5 e53c fde6 153e e6fb 333d
000000a0: 07a8 243e f7be 5f3e cc53 d9bd 3b46 55be
000000b0: e5f7 0ebd baee 8f3e c5bf c2bd c89e d23d
000000c0: 71e0 ebbd d4cb 61bd 40b4 95be e3dd 8f3e
000000d0: 6ed7 5abe 03e7 e63d 9ae5 70be 116b 083d
000000e0: 3ced d1bd 8dfb 2bbe 1db7 02be b9a2 4ebd
000000f0: c0ab 903e 2d60 86bd d914 43be f26d ed3c
00000100: e6fc 5a3c 78fc 7cbe 89a1 2fbe 188b a9bd
00000110: 1097 873d 5593 5fbe e5d4 cd3d 13b9 893d
00000120: 182c 70be c7ba f3bd 9079 c0be d044 4d3e
00000130: 5f24 093f 1cc3 813d b0c3 663e 8263 6b3e
00000140: 2b07 70bc eef4 b63e 166d 553d dcf3 29be
00000150: 77bc 063d db0c 4fbe 37d7 83be 47f9 8d3e
00000160: ef4d 8c3d a99a 223d f154 3a3e 7b9f 1fbe
00000170: 1f19 ebbe 2e68 fb3b b85d 1e3e 1869 cb3d
00000180: 7a4e 753e 2a41 60be 04da 77be d3a8 043e
00000190: f857 07bc d12a 81be 123d 9c3e e457 433e
000001a0: ffc4 ffbc a17a acbe 49fc a7bd 13da 17be
000001b0: bc48 aabd 89a0 94be 2245 0f3d a614 f03d
000001c0: 343e 84be 4765 093e 78a6 0d3d 9f67 d13d
000001d0: e5fe 6a3e b2aa 23be 1ed6 553c d605 22be
000001e0: a852 8ebe bbd1 8fbe 11fd 783b d329 9abe
000001f0: ba7c 9c3d 4794 f4bd b922 e1bd acca b6bd
00000200: c331 343e ea9f 813e b109 d9bd d8eb 713e
00000210: 186e 423c 9e88 89be 583c 693e da7b 853e
00000220: 5afb 53be a39d 94be 8de2 3c3e 8f5d 3c3e
00000230: b78b 6e3e 79d0 5ebd 3e09 18be d1e3 f13d
00000240: 2e28 9a3d 4a72 873e 0d34 2c3e 9fc6 1cbe
00000250: 7d37 ecbc f9e7 d7bc 8c9f b33d 79ba 39be
00000260: decf 543c 71c7 403e d317 29be 61bb 693d
00000270: ee12 77bc 9713 dbbd abb9 03ba 68f0 94be
00000280: 952d 8fbe 79c3 77be 9bc5 c0bd 27ba dabd
00000290: e568 37be 359d 12be 44b3 843e a6e8 523d
000002a0: 8534 8dbe 1f60 59bc 165d 093e b476 29be
000002b0: 8b98 85be 8871 80be 403f e13d 6e7a 06be
000002c0: 8fac 37be 2a6b 55be 8f43 073e 0d02 673e
000002d0: 5fdc 84be 188d 74be ba32 6abe 6be4 e33d
000002e0: 6711 a43c 1be9 97be 945b c73c d335 773e
000002f0: ddd3 e13d 7001 83be f172 8a3e 6bb9 9cbe
00000300: fa9c cc3d 3984 053e 111c b43e 1b7b 103e
00000310: ce7f b33d e015 df3d 9adc 8b3d b122 7d3d
00000320: 2b1d 293e f58b 50be 1cf8 673e 375e 0e3e
00000330: e5c1 edbc ed48 f3bd d164 16be fe08 a03e
00000340: c0c6 003b a67f 70bc d905 51bb 3352 11be
00000350: 7686 6e3e 7cee 84be 6471 8bbe 7abb e8bc
00000360: 9ff0 cabd 43b3 57be 40cb 6abe 7d73 96bc
00000370: 802b 44bd b0ff 52be cca9 8abe dca9 9a3c
00000380: 2213 bc3d d991 d6bd 938e 883e 4f81 143c
00000390: 2bc9 c83d 121a 0bbc 1a10 243d c397 713e
000003a0: b6cc 523d d7fd 95be 6df7 933e cfbc 26ba
000003b0: b37a 66bc b819 40bd b4d4 3e3d cd0c 10be
000003c0: d2f5 f5bc b014 963e 7d62 933e d07c 1e3d
000003d0: 1954 2c3e 64f5 44be 2402 0c3e d3c2 4bbe
000003e0: 42fd 07be 5eac 1a3e fd57 8e3e b54a 0ebe
000003f0: d648 983e db2c 74be 6431 8c3e 2fb7 0d3e
0.5869979 -0.18075196 -0.9279359 0.6310733 -0.31726483 0.21488596 -0.425532 -0.7760832
-0.49501318 0.1440282 -0.6494112 0.8756399 0.025652561 0.09513869 -0.45908567 -0.9304478
0.023843564 0.72378796 -0.21961291 -0.054204173 -0.3382115 -0.15287703 -0.1494747 0.042930778
-0.02063062 0.92159104 0.11213612 -0.14995423 -0.20709637 -0.14082986 -0.07926332 -0.13960123
0.24421377 0.2796412 -0.27804017 -0.136618 -0.16811866 0.028063504 0.14638896 0.0439414
0.16079722 0.21850191 -0.10611686 -0.20827572 -0.03490438 0.2811182 -0.095092334 0.10284191
-0.11517418 -0.055126026 -0.29239082 0.28098974 -0.21371242 0.11274531 -0.23525086 0.03330523
-0.10250327 -0.16795178 -0.12765165 -0.050448153 0.28256035 -0.06561313 -0.19050921 0.02898309
0.01336596 -0.24705684 -0.17151465 -0.08278483 0.0662061 -0.21833546 0.10050372 0.06724753
-0.2345432 -0.11900859 -0.37592745 0.20045781 0.5357112 0.06336042 0.22535586 0.22987178
-0.0146501465 0.35733742 0.052105986 -0.16596931 0.032894578 -0.20219748 -0.25750133 0.27729246
0.06850802 0.039698277 0.18196465 -0.1558818 -0.45917603 0.0076723313 0.15465438 0.099321544
0.23955718 -0.21899858 -0.2420426 0.12955026 -0.0082607195 -0.2522798 0.30515343 0.19076496
-0.031221865 -0.33687308 -0.082024164 -0.14829282 -0.08314654 -0.2902873 0.03497804 0.117226884
-0.25828707 0.1341754 0.034582585 0.10224842 0.22948797 -0.15983084 0.013051538 -0.15822539
-0.27797437 -0.280897 0.0037992636 -0.30110034 0.07640977 -0.11942344 -0.10992951 -0.08925375
0.17597108 0.25317317 -0.105975516 0.23625124 0.011867069 -0.26862043 0.22776926 0.26071054
-0.20701352 -0.29026517 0.18445797 0.18395065 0.23295484 -0.054398034 -0.14847276 0.11811031
0.07527195 0.26454383 0.16816731 -0.15310143 -0.028835053 -0.02635573 0.087706655 -0.1813754
0.0129890125 0.18826081 -0.16512994 0.057063464 -0.015080197 -0.10697096 -0.000502492 -0.29089665
-0.27964464 -0.2419566 -0.0941269 -0.10680037 -0.17911108 -0.14317782 0.2591802 0.051491402
-0.27579132 -0.013267546 0.13414416 -0.16549188 -0.26092944 -0.25086617 0.10998392 -0.1313264
-0.1793692 -0.20841661 0.13209365 0.22559376 -0.2594938 -0.23881948 -0.22870913 0.11127552
0.02002783 -0.29670033 0.02433566 0.24141626 0.11026738 -0.25587034 0.27040818 -0.30610213
0.099908784 0.1303872 0.35177663 0.14109461 0.08764611 0.10892844 0.06829186 0.061800662
0.16515033 -0.2036589 0.2265324 0.13903128 -0.02902312 -0.11879144 -0.14686896 0.3125686
0.0019649714 -0.014678871 -0.0031894355 -0.14191513 0.2329348 -0.259632 -0.27234948 -0.028409708
-0.09909176 -0.21064477 -0.22929096 -0.018365616 -0.047893047 -0.2060535 -0.2708267 0.018879823
0.09183337 -0.10477037 0.26671275 0.009064033 0.09803995 -0.008490102 0.04005442 0.23593049
0.05146476 -0.29295227 0.28899708 -0.0006360532 -0.01406734 -0.046899527 0.04658957 -0.14067383
-0.030024443 0.29312658 0.28786078 0.03869325 0.16828956 -0.19234234 0.13672692 -0.19898538
-0.13280204 0.15104815 0.27801505 -0.13895686 0.2974307 -0.23845236 0.27381432 0.1383941
