workspace/suphx-reward-shaping/weights/numpy/weights_no_logistic_TD_7_layer_0.npy (npy, 2560 bytes, 1 tensors)

array f4 [19, 32]
00000000: 7e73 eebe f113 093f d8ac cbbe 6e6d 383d
00000010: 5c5e 283c de4e 5bbf c7c3 b83e 5856 b6bc
00000020: a887 04bd de18 b03e c17c 80be ffe3 cdbe
00000030: 8b3c efbe a51f 8fbc 022e 3a3e 5215 f4be
00000040: f187 2fbe 854c 3f3e 647a 703e ebab d0bd
00000050: d32b d13e d6d1 033e b6ff 6ebe 03dd 2b3e
00000060: 6654 e9bb 7f31 96be 3ad6 39bf 15cf 38be
00000070: e8f1 8b3e 1479 2e3c 5e05 223e 1162 063f
00000080: 40db 9f3e ddae fcbe 97b1 11bf 229d 6a3d
00000090: ec02 8c3e 0675 043f 1c61 a83e bce1 8abe
000000a0: 0d59 ef3e 98c5 50bf 12f3 153f 5736 e13c
000000b0: e93e 01be 4b89 64be e616 95be a8ee 243e
000000c0: 65fa 7e3b 1065 b73d 9fd2 94be 4e09 2d3f
000000d0: 8c7f 4fbe 3835 103f b988 c1be 1d29 c3be
000000e0: 0a5e 0c3f 08c6 d93e 8be3 5dbe 3170 c03e
000000f0: 55fb ce3e 9aa9 d3bb dfd5 0ebe 5ae3 0ebe
00000100: 5914 3d3e 8a26 62be 3110 bb3e 1a64 9abc
00000110: b370 603e 3b86 963e db37 613e d33b df3e
00000120: eb5e 76be c938 ed3e f2f8 e33e 8bdd 85bd
00000130: c30a 643e 5528 d3be fca0 d0bc 7be7 553f
00000140: 7a0c a0be 5886 aebe 7b36 503e b743 3cbf
00000150: fc6e fabd 02d3 473e a2f7 4bbe ab61 ba3b
00000160: 7a6e 53bf 5222 5dbe c289 27be e715 f5be
00000170: b22d 783c 857b 2fbf 94f0 08bf b4e1 21bf
00000180: 982b f1bd 0ac6 2dbe ab20 043f 13a1 10be
00000190: 4099 b83e dacb 303f 6670 1ebe ec20 b23c
000001a0: 6639 84be 0257 273f ce49 43bf e577 0f3e
000001b0: 943e d63e 3e26 a43e e6f8 63bd c5ff 8a3e
000001c0: 35ea a7be ec58 653e d50a 9dbe 8ee9 e2bd
000001d0: 1e61 9bbd 2667 28bf 5763 95be a752 d73e
000001e0: 7147 d33d f634 a3be c528 253f 7fb7 b13e
000001f0: 055a c83e dcfc 133f efaf 073f e3a8 653e
00000200: 9592 b73e e96b cebe e77b a2be bb68 1dbe
00000210: 5036 373e f8d7 97be a436 3d3e b14a fbbd
00000220: 2aae 693e 7cf6 5bbd af18 873e 11db 8a3e
00000230: a23c c2bd 2308 7f3d 18e1 afbe 5143 adbe
00000240: 2968 65be c32e ccbe 10fc db3d d1d2 103e
00000250: 3519 93be 5be6 c13d 612e c1bd b185 ad3c
00000260: 3a5e cb3e f366 e73d 74c8 90be 51eb cabe
00000270: 6641 91bd 0704 ce3e c943 c63e 31db ddbd
00000280: abce 273e 3ea3 ac3d 6537 833e 4619 1dbe
00000290: 8beb b7bd 90b1 803e 3926 ca3d 6d36 bd3e
000002a0: e7d4 a73d c5c8 df3e e6de 023e 196c 1fbe
000002b0: ccd9 a43d 77b1 22be a6da 493e 00b5 c0bd
000002c0: 6fc7 16bd 6013 e23e 3ac4 4b3e 8624 bd3e
000002d0: 7f6e b53e 9f32 633e 28d7 64be b506 b2be
000002e0: 94a1 f4bd 5f30 a5be 711b 213e 77f7 453e
000002f0: 502e ffbd 1957 55be ba2c 773e 58e7 2cbc
00000300: f16b 1b3e 7199 65be 574f a1bc 02e8 d13e
00000310: b51c d83e 7705 cabe 0edb 9cbe aa6b 3cbe
00000320: 1e0f a43e 1694 9d3e d90f 2ebe 5e41 86be
00000330: 266b 9a3e 5320 593e 1181 8f3d f180 adbe
00000340: ecfb 97bb 3e05 7f3e 61a5 d63e 24c1 943e
00000350: f8e8 90be 358b 90bd 7a76 c1bd 392d 30be
00000360: 4e10 013e f9f6 753b 1d99 97be 3cd5 673e
00000370: a9af c1be 7bf6 48be 7d33 a3be 41e1 c13e
00000380: 5a22 98bd 8fbd ed3d f972 a2bc 6820 84bd
00000390: 4d3e 4d3d aa5b 67be 6cd5 233e 7326 17be
000003a0: af1a 3a3e 5794 503e 7fa6 363e 9805 b43e
000003b0: f7f5 c5be 1797 833e 52ba d53e 09db 813d
000003c0: 3d79 9d3e 157c d1be 4210 7f3e c042 843e
000003d0: d2c5 ecbd d593 593d 61d5 93be dbab 853d
000003e0: 178e 183e 60ba 143d 5de0 863e dad0 463d
000003f0: 9fbb ffbc 509d 9abe 6328 a2be 0015 54be
-0.4657249 0.53546053 -0.39780307 0.045026235 0.010276403 -0.85667217 0.36086866 -0.022257969
-0.032355934 0.34393972 -0.2509518 -0.4021301 -0.46725878 -0.017471144 0.18181613 -0.47672516
-0.17141701 0.18681534 0.23484188 -0.10189041 0.40853748 0.12873015 -0.23339733 0.16783528
-0.007120657 -0.29334638 -0.7259251 -0.18047746 0.27332997 0.010648984 0.1582236 0.5249339
0.31221962 -0.4935216 -0.56911606 0.05727876 0.2734598 0.51741064 0.3288659 -0.27125347
0.46747628 -0.81551504 0.5857402 0.027491732 -0.12621655 -0.22317998 -0.29119033 0.16106665
0.003890657 0.08954823 -0.2906694 0.6759232 -0.20263499 0.56331205 -0.37799624 -0.38117304
0.5483099 0.42533898 -0.21668832 0.37585595 0.40426126 -0.006459427 -0.13948773 -0.13953915
0.18464793 -0.22085014 0.3653579 -0.01884656 0.21917991 0.29399285 0.21993963 0.4360033
-0.24059646 0.46332386 0.44525868 -0.065363966 0.2226973 -0.41241708 -0.025467388 0.83556336
-0.3125952 -0.3408687 0.20333283 -0.73540825 -0.122282 0.19514087 -0.19918683 0.0056879125
-0.8259045 -0.21595123 -0.16361144 -0.47868273 0.015147613 -0.6854785 -0.53492093 -0.6323502
-0.11775893 -0.16970077 0.5161235 -0.14123945 0.3605442 0.6906105 -0.15472564 0.021744214
-0.25825042 0.6536714 -0.7628449 0.1401058 0.41844618 0.32060426 -0.05565729 0.27148262
-0.32795873 0.22397202 -0.30672327 -0.11079703 -0.07586883 -0.6578239 -0.29177353 0.42055246
0.10316361 -0.31876343 0.64515334 0.3471031 0.3913118 0.5780771 0.5300283 0.22427706
0.3585402 -0.40316704 -0.31735155 -0.15371983 0.17891812 -0.2965696 0.18477875 -0.12270106
0.22820345 -0.053701863 0.2638602 0.2712026 -0.09484221 0.06226362 -0.3435142 -0.3384042
-0.22403015 -0.39879426 0.107414365 0.1414292 -0.2873017 0.09467765 -0.09432674 0.021181913
0.39720327 0.11298933 -0.28277934 -0.39632657 -0.07092552 0.40237448 0.3872359 -0.10832823
0.16387431 0.084295735 0.256282 -0.15341672 -0.08980473 0.2513547 0.09870572 0.36955586
0.08194905 0.43707862 0.12780342 -0.1556858 0.08049354 -0.1588801 0.19712314 -0.09409523
-0.03681129 0.44155407 0.19899073 0.36941928 0.35435864 0.22187279 -0.223477 -0.34770742
-0.11944881 -0.32263467 0.15733124 0.19332682 -0.12460005 -0.20834006 0.24138156 -0.0105532035
0.15177895 -0.22421815 -0.019691152 0.4099732 0.42209402 -0.39457294 -0.30635875 -0.18400446
0.32042783 0.30777043 -0.16998233 -0.26221746 0.30159873 0.21203737 0.07007039 -0.33887437
-0.0046381857 0.24904343 0.4192305 0.29053605 -0.2830274 -0.07057802 -0.09446426 -0.17204751
0.12603876 0.003753124 -0.29609004 0.22639936 -0.3782933 -0.19625275 -0.3187522 0.37867168
-0.07428427 0.11608421 -0.019830214 -0.064514935 0.050108243 -0.22593561 0.15999383 -0.14760761
0.18174241 0.20369087 0.1783695 0.35160518 -0.3866422 0.2570121 0.41743714 0.06340606
0.3075656 -0.4091498 0.24908546 0.25832176 -0.11561169 0.0531195 -0.28873733 0.065269195
0.14897953 0.036310554 0.2634305 0.04853902 -0.031217394 -0.30198145 -0.31671438 -0.20711136
