workspace/suphx-reward-shaping/weights/numpy/weights_no_logistic_TD_4_layer_2.npy (npy, 640 bytes, 1 tensors)

array f4 [32, 4]
000000 56 f2 19 3f 8a 27 e0 bd 10 8f c7 3e d2 23 80 be
       0.601354 -0.109450415 0.38976336 -0.2502733
000010 07 66 71 be 8e 74 bd 3c 9a f7 5f 3c 1f 62 66 be
       -0.23574077 0.023126867 0.013669873 -0.22498368
000020 0b 44 93 3e 33 dc 00 3f 44 c8 c9 bd 88 96 21 be
       0.2876285 0.50336 -0.09852651 -0.1578008
000030 72 21 b9 3e 3d 7a 5d bd a3 d8 0f 3e 62 86 9e 3d
       0.3615833 -0.054071654 0.14047484 0.07740475
000040 f7 cc c5 3e d9 a2 a1 be f9 b4 5e be eb 2e ef 3d
       0.38632938 -0.31569555 -0.21748723 0.11678871
000050 2a 58 a3 3e 90 2a 5c 3e e2 85 aa be 6f 0c aa bd
       0.319032 0.21500611 -0.3330527 -0.08303153
000060 b7 33 1c be d4 1b 5b 3e 4f 46 26 be 3f fe b9 3e
       -0.15254103 0.21397334 -0.16237758 0.36326787
000070 70 9b 76 be 0e da 07 3e 47 5b 54 3e f4 69 81 be
       -0.24082732 0.13266775 0.20737945 -0.25276148
000080 2a 13 3d bc dc 5b 19 be 60 c0 c6 3c 31 ae c0 be
       -0.011540214 -0.14976448 0.024261653 -0.37632897
000090 21 d2 86 3d b6 2f ca be cb 9b d3 3d 91 5c bd be
       0.06583048 -0.39489526 0.103324495 -0.36984685
0000a0 4c 5e 1f bc 2f ee 9a 3e af 59 50 be 4b ec 85 be
       -0.009727072 0.30259845 -0.20346712 -0.2615684
0000b0 77 78 50 bd 18 bc 1d be 00 ec ab be f8 77 0b bd
       -0.050896134 -0.15403783 -0.3357849 -0.034049958
0000c0 34 85 8c be b6 1d 5d be bc d1 89 3e 61 3c 17 3d
       -0.27445376 -0.21593365 0.26917827 0.036922816
0000d0 a3 93 3e 3e 01 22 9d be 5e 2b a7 be 1b 72 80 3d
       0.18611006 -0.30690005 -0.32650274 0.06271764
0000e0 bc 60 34 be 42 0e 65 3d 3b 63 0e be 4c 04 19 3e
       -0.17615026 0.0559218 -0.13905041 0.14943045
0000f0 b8 ca 7a bd 7f 0e 81 3e 41 c7 64 3e ed 90 c7 39
       -0.061228484 0.25206372 0.22341634 0.00038064216
000100 33 99 02 be 06 19 94 3c 91 ef ca 3e 49 6e df be
       -0.12753753 0.018078338 0.396359 -0.43638828
000110 b4 db 07 3e ba aa 76 be 4d 01 83 3e 88 0b b0 3e
       0.13267404 -0.24088565 0.2558693 0.34383798
000120 f2 b3 5d 3e a0 5b a8 3e dc 1f 9c 3e c6 db d5 bd
       0.21650675 0.32882404 0.30493057 -0.10442309
000130 a8 2f 03 3e 68 1f bf 3e cd fb 97 be 8a 3f 84 be
       0.12811148 0.3732865 -0.29684296 -0.25829726
000140 58 99 6c 3e b2 b3 27 3e 4d 10 d5 3c af 96 83 3d
       0.23105371 0.16377142 0.02600875 0.06425225
000150 9e ed bb be 97 92 9a be e8 c1 c4 be 09 24 b1 3e
       -0.36704725 -0.30189964 -0.3842919 0.34597805
000160 81 4c 61 be eb 21 18 3e e3 95 a1 be 95 1c 35 3e
       -0.2200184 0.14856689 -0.31559667 0.17686684
000170 66 bc fe bd c8 1b 63 be 1a d8 04 3e 0a 17 5b be
       -0.12438278 -0.22178566 0.12973061 -0.21395507
000180 4d ae 6a be 0b 95 b3 3e 37 b3 72 3e c9 71 d6 3d
       -0.22918053 0.35074648 0.23701178 0.104709215
000190 d5 aa 67 3e aa 1f a6 be 77 19 06 3e af d9 69 3e
       0.22623761 -0.32446033 0.13095652 0.22836946
0001a0 95 cb f4 3e d1 73 a7 bd 79 b2 d2 be 0c d8 13 3e
       0.4781157 -0.08176387 -0.4115179 0.14437884
0001b0 83 bb 37 3e 9b 6d 4c be 04 11 aa 3e 6b 0a cb be
       0.17942624 -0.19963686 0.33216107 -0.39656386
0001c0 0d 44 86 bd 32 99 b9 be 5c 66 c8 bd 44 ad ad be
       -0.065559484 -0.3624969 -0.097851485 -0.33921254
0001d0 83 d6 00 3b cb f4 c6 3e 06 ba 7b 3e ea 91 be bd
       0.001965911 0.38858637 0.24582681 -0.09305175
0001e0 09 fe a8 3d c9 f7 e8 be fa bf 1b 3e ff e3 bd 3d
       0.08251578 -0.45501545 0.15209952 0.092720024
0001f0 3a 68 af 3e af ec 51 be 81 20 c1 ba a2 13 17 be
       0.34259206 -0.20500444 -0.0014734418 -0.14753583
