workspace/suphx-reward-shaping/weights/numpy/weights_no_logistic_TD_2_layer_2.npy (npy, 640 bytes, 1 tensors)

array f4 [32, 4]
0	0x3ecf16a7	0.4044697
1	0xbe5ad3a1	-0.21369793
2	0x3ed0866f	0.40727565
3	0x3e06bc50	0.13157773
4	0xbe74cd33	-0.23906402
5	0xbd752d88	-0.059857875
6	0xbd83ca54	-0.064350754
7	0xbe6f25b2	-0.23354223
8	0x3e784c26	0.24247798
9	0x3f19da9b	0.6009919
10	0xbeabb0f7	-0.3353345
11	0xbe0b5ed6	-0.13610396
12	0x3e862d86	0.26206607
13	0x3d8afb77	0.06786244
14	0xbe16627d	-0.14686008
15	0x3ed3f6f5	0.4139935
16	0x3ec5ccf7	0.38632938
17	0xbea1a2d9	-0.31569555
18	0xbe5eb4f9	-0.21748723
19	0x3def2eeb	0.11678871
20	0x3ead87de	0.3389272
21	0x3e3514fd	0.17683788
22	0xbeacd6af	-0.3375754
23	0xbd9d034e	-0.07666646
24	0xbdfd51dc	-0.12369129
25	0x3e6454d2	0.22297981
26	0xbe203652	-0.15645722
27	0x3e9388f9	0.2881544
28	0xbe85f785	-0.26165405
29	0x3dc74e55	0.097317375
30	0x3e5e0169	0.21680225
31	0xbe83f9eb	-0.2577661
32	0xbc5d21ca	-0.0134968255
33	0xbe16bf4d	-0.14721413
34	0x3cfae03a	0.030624498
35	0xbebe83d9	-0.37209967
36	0x3db26c7e	0.087120995
37	0xbeb74382	-0.35793692
38	0x3e10ccfb	0.14140694
39	0xbea39a2a	-0.31953555
40	0x3bcc5e5f	0.006236836
41	0x3e9c2a79	0.30501154
42	0xbe9907a3	-0.2988864
43	0xbe7dcb39	-0.24784555
44	0x3c91f2c0	0.017815948
45	0xbd279693	-0.040915083
46	0xbeb26986	-0.34846133
47	0xbcbccea8	-0.02304776
48	0xbe885173	-0.2662464
49	0xbe54c7d4	-0.20779353
50	0x3e8d0453	0.27542362
51	0x3d313834	0.04326649
52	0x3e2f858e	0.17140791
53	0xbea6965f	-0.325366
54	0xbe9bd03b	-0.30432305
55	0x3d95777b	0.0729818
56	0xbe75e441	-0.24012853
57	0x3e3feded	0.18743105
58	0xbe51f71c	-0.20504421
59	0x3db1f46f	0.086892
60	0xbd30d328	-0.043170124
61	0x3e842b7f	0.25814435
62	0x3e774556	0.24147543
63	0xbd16ac9a	-0.0367857
64	0x3d370442	0.044681795
65	0xbdf16bfa	-0.11788173
66	0x3eb8ea3b	0.36116204
67	0xbe331366	-0.17487869
68	0x3e167f8d	0.14697094
69	0xbe7bc486	-0.24586686
70	0x3e89e69f	0.26933762
71	0x3ea281d5	0.3173968
72	0x3e9bb7e8	0.30413747
73	0x3e89b146	0.2689306
74	0x3e92af27	0.28649256
75	0xbe92717e	-0.28602213
76	0x3d11080a	0.035408057
77	0x3eaedd1e	0.34153074
78	0xbec0a789	-0.3762782
79	0xbe7a617c	-0.2445125
80	0x3e73777f	0.23776053
81	0x3e1f1a52	0.15537384
82	0x3ddf2bce	0.10897027
83	0x3ba71b16	0.0050996644
84	0xbeca17fb	-0.3947142
85	0xbea68a92	-0.32527596
86	0xbecdc31b	-0.40187916
87	0x3ea3845a	0.31936914
88	0xbe614c81	-0.2200184
89	0x3e1821eb	0.14856689
90	0xbea195e3	-0.31559667
91	0x3e351c95	0.17686684
92	0xbe046469	-0.12928928
93	0xbe5be876	-0.21475396
94	0x3df6ef41	0.12057353
95	0xbe633a49	-0.22190203
96	0xbec08b07	-0.3760607
97	0x3e899251	0.26869443
98	0x3e1a7d79	0.15086927
99	0x3dcebadc	0.10094234
100	0x3e716296	0.23572764
101	0xbeac3d46	-0.33640498
102	0x3e0aa56b	0.13539664
103	0x3e5b3e11	0.21410395
104	0x3e78f595	0.24312432
105	0xbe14fc93	-0.14549474
106	0xbea65341	-0.32485393
107	0x3e1009d4	0.14066249
108	0x3e445a23	0.1917501
109	0xbe3ef25b	-0.18647139
110	0x3eb17a15	0.34663454
111	0xbec43934	-0.38324893
112	0xbdb9a3d4	-0.09064451
113	0xbe9c828c	-0.3056835
114	0x3c77315d	0.015087453
115	0xbebd91ec	-0.37025392
116	0x3c4fbb37	0.012678913
117	0x3ebe7214	0.3719641
118	0x3e81c2e1	0.25343993
119	0xbde1a414	-0.110176235
120	0xbe2ac6f4	-0.16677457
121	0xbe8d3ff6	-0.2758786
122	0x3d963170	0.07333648
123	0xbcf10267	-0.02942009
124	0x3eaf683a	0.34259206
125	0xbe51ecaf	-0.20500444
126	0xbac12081	-0.0014734418
127	0xbe1713a2	-0.14753583
