workspace/suphx-reward-shaping/weights/numpy/weights_no_logistic_TD_1_layer_0.npy (npy, 2560 bytes, 1 tensors)

array f4 [19, 32]
-0.10716628 0.1886574 -0.4436961 0.045026235 0.13504006 -0.2724742 0.26842466 0.41962674
0.06404752 0.20449808 -0.20770386 -0.5421974 -0.50970757 -0.011414737 0.76518613 -0.10963495
-0.24570967 0.17706096 0.14580584 -0.37160948 0.33108833 -0.01815507 -0.2499233 0.017452508
0.448474 -0.29334638 -0.42415568 0.10722993 0.228343 0.11791941 0.1306035 0.24264276
0.17051008 -0.3105371 -0.46879733 0.05727876 0.25523552 0.24791071 0.4043516 -0.47093353
0.07227225 -0.1507958 0.40348032 -0.022620915 -0.042911325 -0.13441737 -0.6679171 0.1928086
-0.10818493 0.14143065 -0.3433021 0.58494264 -0.18584488 0.41108334 -0.40634716 -0.37238064
0.22427991 0.42533898 -0.28479382 0.35949033 0.36196426 0.0068571535 -0.2202249 -0.12958953
0.16793491 -0.018555325 0.4109723 -0.01884656 0.08381893 0.22187246 0.20519544 0.81908196
0.11805531 0.3697424 0.18909286 -0.121279195 0.109473504 -0.5669365 -0.31758016 0.40693605
-0.26343846 -0.1819255 0.16426413 -0.2954059 -0.10016982 0.23885351 -0.36971688 0.13793185
-0.5268474 -0.21595123 0.0153182885 -0.57446873 -0.035644256 -0.3521693 -0.4512753 -0.23045652
-0.1554536 -0.13305493 0.688958 -0.14123945 0.41050908 0.3951517 -0.020064946 -0.3998619
-0.54616314 0.34577614 -0.6120542 0.37144056 0.5412835 0.34816507 0.16511023 0.17745619
-0.25970092 -0.035801385 -0.3518597 -0.30866596 -0.13565323 -0.27503678 -0.24351546 0.37436125
-0.2575804 -0.31876343 0.417002 0.31322974 0.44697076 0.004913938 0.5270006 0.04780541
0.3585402 -0.40316704 -0.31735155 -0.15371983 0.17891812 -0.2965696 0.18477875 -0.12270106
0.22820345 -0.053701863 0.2638602 0.2712026 -0.09484221 0.06226362 -0.3435142 -0.3384042
-0.22403015 -0.39879426 0.107414365 0.1414292 -0.2873017 0.09467765 -0.09432674 0.021181913
0.39720327 0.11298933 -0.28277934 -0.39632657 -0.07092552 0.40237448 0.3872359 -0.10832823
0.19862445 0.049855515 0.33352053 -0.15341672 -0.087799504 0.20679152 0.09337365 0.3168117
0.04482523 0.40680432 0.074015334 -0.1556858 0.14730872 -0.14287971 0.16270971 -0.11519512
-0.05246445 0.4240224 0.19899073 0.28723913 0.33166182 0.24286205 -0.22928095 -0.34770742
-0.16153558 -0.32263467 0.20172893 0.25103635 -0.16216606 -0.1605576 0.2909083 -0.051762637
0.15177895 -0.22421815 -0.019691152 0.4099732 0.42209402 -0.39457294 -0.30635875 -0.18400446
0.32042783 0.30777043 -0.16998233 -0.26221746 0.30159873 0.21203737 0.07007039 -0.33887437
-0.0046381857 0.24904343 0.4192305 0.29053605 -0.2830274 -0.07057802 -0.09446426 -0.17204751
0.12603876 0.003753124 -0.29609004 0.22639936 -0.3782933 -0.19625275 -0.3187522 0.37867168
-0.07428427 0.11608421 -0.020096488 -0.064514935 0.030733632 -0.22593561 0.179125 -0.043019548
0.16772602 0.20369087 0.12960348 0.34679437 -0.44506344 0.23470567 0.4933806 0.0074067493
0.3075656 -0.40336946 0.19215675 0.27565658 -0.11561169 0.0531195 -0.32701415 0.04459543
0.16511334 0.036310554 0.2634305 0.052490387 -0.018682828 -0.37237102 -0.3662616 -0.20711136
00000000: ff79 dbbd 682f 413e 232c e3be 6e6d 383d
00000010: f147 0a3e bd81 8bbe f56e 893e 51d9 d63e
00000020: 592b 833d f267 513e 52b0 54be 73cd 0abf
00000030: 327c 02bf e104 3bbc 3de3 433f 4a88 e0bd
00000040: 519b 7bbe 784f 353e 204e 153e 9943 bebe
00000050: 6984 a93e f1b9 94bc e5eb 7fbe 90f8 8e3c
00000060: 629e e53e 7f31 96be ef2a d9be 5e9b db3d
00000070: bfd2 693e bb7f f13d edbc 053e 5877 783e
00000080: 329a 2e3e b8fe 9ebe 3406 f0be 229d 6a3d
00000090: 3bae 823e 4edc 7d3e 2c07 cf3e 331e f1be
000000a0: 7903 943d 376a 1abe f994 ce3e 7f4f b9bc
000000b0: c9c3 2fbd b5a4 09be 9dfc 2abf 9e6f 453e
000000c0: 1090 ddbd 32d3 103e 4bc5 afbe cdbe 153f
000000d0: 1f4e 3ebe 8479 d23e bc0c d0be ada8 bebe
000000e0: a2a9 653e 08c6 d93e 7fd0 91be 1e0f b83e
000000f0: 6153 b93e f9b1 e03b a382 61be 1eb3 04be
00000100: 21f7 2b3e 5601 98bc f66a d23e 1a64 9abc
00000110: 42a9 ab3d 8932 633e c11e 523e 5baf 513f
00000120: fbc6 f13d e04e bd3e 8fa1 413e 3a61 f8bd
00000130: a533 e03d c022 11bf de99 a2be ec59 d03e
00000140: 68e1 86be ae4a 3abe db34 283e 713f 97be
00000150: d625 cdbd 0496 743e 884b bdbe 023e 0d3e
00000160: 79df 06bf 5222 5dbe 8ff9 7a3c 6210 13bf
00000170: b6ff 11bd 894f b4be 8e0d e7be cbfc 6bbe
00000180: 3b2f 1fbe 8d3f 08be 8d5f 303f 13a1 10be
00000190: 3f2e d23e 5351 ca3e 3e5f a4bc b3ba ccbe
000001a0: 59d1 0bbf 9209 b13e 96af 1cbf 752d be3e
000001b0: 8e91 0a3f b142 b23e a812 293e 13b7 353e
000001c0: 85f7 84be 79a4 12bd f426 b4be 7709 9ebe
000001d0: aee8 0abe 9fd1 8cbe 1e5c 79be 47ac bf3e
000001e0: 94e1 83be f634 a3be 4981 d53e a65f a03e
000001f0: 5ad9 e43e 1a05 a13b 83e9 063f 9bcf 433d
00000200: 9592 b73e e96b cebe e77b a2be bb68 1dbe
00000210: 5036 373e f8d7 97be a436 3d3e b14a fbbd
00000220: 2aae 693e 7cf6 5bbd af18 873e 11db 8a3e
00000230: a23c c2bd 2308 7f3d 18e1 afbe 5143 adbe
00000240: 2968 65be c32e ccbe 10fc db3d d1d2 103e
00000250: 3519 93be 5be6 c13d 612e c1bd b185 ad3c
00000260: 3a5e cb3e f366 e73d 74c8 90be 51eb cabe
00000270: 6641 91bd 0704 ce3e c943 c63e 31db ddbd
00000280: 3564 4b3e 4c35 4c3d 34c3 aa3e 4619 1dbe
00000290: 3ad0 b3bd 28c1 533e af3a bf3d 2535 a23e
000002a0: a99a 373d a848 d03e 5a95 973d 196c 1fbe
000002b0: 19d8 163e 0f4f 12be 609d 263e 6beb ebbd
000002c0: f7e4 56bd 7719 d93e 3ac4 4b3e 0211 933e
000002d0: 94cf a93e d4b0 783e a0c8 6abe b506 b2be
000002e0: 9569 25be 5f30 a5be 0792 4e3e d687 803e
000002f0: dc0e 26be 3669 24be eff1 943e 0f05 54bd
00000300: f16b 1b3e 7199 65be 574f a1bc 02e8 d13e
00000310: b51c d83e 7705 cabe 0edb 9cbe aa6b 3cbe
00000320: 1e0f a43e 1694 9d3e d90f 2ebe 5e41 86be
00000330: 266b 9a3e 5320 593e 1181 8f3d f180 adbe
00000340: ecfb 97bb 3e05 7f3e 61a5 d63e 24c1 943e
00000350: f8e8 90be 358b 90bd 7a76 c1bd 392d 30be
00000360: 4e10 013e f9f6 753b 1d99 97be 3cd5 673e
00000370: a9af c1be 7bf6 48be 7d33 a3be 41e1 c13e
00000380: 5a22 98bd 8fbd ed3d 64a1 a4bc 6820 84bd
00000390: 19c5 fb3c aa5b 67be 8b6c 373e 4435 30bd
000003a0: 5fc0 2b3e 5794 503e c6b6 043e 088f b13e
000003b0: 5bdf e3be af56 703e 629c fc3e 51b4 f23b
000003c0: 3d79 9d3e 7186 cebe bdc4 443e dc22 8d3e
000003d0: d2c5 ecbd d593 593d 666e a7be b3a9 363d
000003e0: 7913 293e 60ba 143d 5de0 863e 2900 573d
000003f0: bb0c 99bc 6aa7 bebe a486 bbbe 0015 54be
