workspace/suphx-reward-shaping/weights/numpy/weights_no_logistic_TD_6_layer_0.npy (npy, 2560 bytes, 1 tensors)

array f4 [19, 32]
0	0xbed0ff44	-0.40819752
1	0x3e412f68	0.1886574
2	0xbefcb802	-0.49359137
3	0x3d215112	0.039383955
4	0x3da6c5cb	0.08143195
5	0xbe8b81bd	-0.2724742
6	0x3e8cc24a	0.2749198
7	0xbe0a7b6d	-0.13523646
8	0x3d88d917	0.066820316
9	0x3e2034fd	0.15645213
10	0xbe2a5426	-0.16633663
11	0xbed513b8	-0.41616607
12	0xbee1fe3e	-0.44139284
13	0xbdbee172	-0.09320344
14	0x3ddfa447	0.10920005
15	0xbea8913c	-0.32923305
16	0xbe6b9598	-0.23006284
17	0x3e2a7078	0.16644466
18	0x3f373343	0.71562594
19	0x3c42e5b0	0.011895582
20	0x3f885e54	1.0653787
21	0xbc94b9f1	-0.01815507
22	0xbe3d0d63	-0.18462138
23	0x3e2bdd03	0.16783528
24	0x3e482472	0.19545153
25	0xbe96317f	-0.29334638
26	0xbed92aef	-0.42415568
27	0xbdc2fbee	-0.09520708
28	0x3e62631f	0.22108124
29	0xbd7e1f7f	-0.062041756
30	0x3e0f269a	0.13979569
31	0x3f4d36d4	0.80161786
32	0x3f275e48	0.65378237
33	0xbe9efeb8	-0.3105371
34	0xbf0bd25d	-0.54617864
35	0x3aac5bc7	0.001314991
36	0x3e3bcbd9	0.1833948
37	0x3e7ddc4e	0.24791071
38	0x3eca6fd9	0.39538458
39	0xbe6f1488	-0.23347676
40	0x3df4086d	0.119156696
41	0xbeca954d	-0.39567032
42	0x3f2f52c6	0.6848568
43	0x3c0a1408	0.008427627
44	0x3d900aff	0.07033347
45	0xbd306718	-0.043067068
46	0xbf4b0ad7	-0.79313415
47	0x3e946d15	0.28989473
48	0xbd4ddaaf	-0.05025738
49	0x3ddbe770	0.107375026
50	0xbec7b841	-0.39007762
51	0x3f1f8e83	0.6232683
52	0xbf12fb17	-0.5741438
53	0x3ed27984	0.41108334
54	0xbed11c40	-0.40841866
55	0xbec3291d	-0.38117304
56	0x3e5516b9	0.2080945
57	0x3ed9c608	0.42533898
58	0xbe91d07f	-0.28479382
59	0x3ef8c7b9	0.48589876
60	0x3ebd2ef8	0.36949897
61	0xbd81c20f	-0.06335842
62	0xbd0451a6	-0.03230443
63	0x3b4f0840	0.003159061
64	0xbd3b161e	-0.04567539
65	0xbc980156	-0.018555325
66	0x3ed366e6	0.41289443
67	0x3bc69fb6	0.0060615195
68	0x3e0f275a	0.13979855
69	0x3e633289	0.22187246
70	0x3e17d713	0.14828138
71	0x3ea3d8c0	0.32001305
72	0xbd9c737c	-0.076392144
73	0x3f825588	1.0182352
74	0x3f03b89e	0.5145358
75	0xbdad0a57	-0.08449238
76	0x3ead45d9	0.33842352
77	0xbef0644c	-0.4695152
78	0x3f00abf0	0.50262356
79	0x3f1b9e12	0.6078807
80	0xbe3669ba	-0.17813769
81	0xbe9b353b	-0.3031405
82	0xbe9f6077	-0.31128284
83	0xbf454aa5	-0.77067024
84	0x3e04f23e	0.12983033
85	0x3e749604	0.23885351
86	0xbed08711	-0.40728047
87	0x3bba61ab	0.0056879125
88	0xbecbd62c	-0.39811838
89	0xbe5d2252	-0.21595123
90	0x3c7af98f	0.0153182885
91	0xbe8b3445	-0.27188316
92	0x3d2e4708	0.04254821
93	0xbdb3c4be	-0.0877776
94	0xbee1930e	-0.44057506
95	0xbf84a0ed	-1.0361611
96	0xbea8312f	-0.32850024
97	0xbe083f8d	-0.13305493
98	0x3f278bab	0.6544749
99	0xbb25835b	-0.0025255296
100	0x3ed61df5	0.4181973
101	0x3eca5153	0.3951517
102	0xb9f04d53	-0.00045833978
103	0x3ba1c711	0.0049370606
104	0xbe8288bf	-0.25494954
105	0x3e163d43	0.14671807
106	0xbf8a60bd	-1.0810772
107	0x3df8919c	0.12137148
108	0x3e8a1e6a	0.2697633
109	0x3e4f5b9f	0.20249794
110	0x3de95e82	0.11394979
111	0x3ea52e8a	0.3226207
112	0xbe7aec69	-0.24504246
113	0x3de74958	0.11293286
114	0xbe9bce65	-0.30430904
115	0xbe9c142d	-0.30484143
116	0xbec77969	-0.38959816
117	0xbe8cd19f	-0.27503678
118	0xbe9d295e	-0.30695623
119	0x3ed752a7	0.42055246
120	0xbe058188	-0.13037694
121	0xbea334f6	-0.31876343
122	0x3ed58149	0.417002
123	0x3e40d208	0.1883012
124	0x3ea27bfc	0.31735218
125	0x3eabe923	0.33576307
126	0x3eecc664	0.4624511
127	0x3ecdcaad	0.40193692
128	0x3eb79295	0.3585402
129	0xbece6be9	-0.40316704
130	0xbea27be7	-0.31735155
131	0xbe1d68bb	-0.15371983
132	0x3e373650	0.17891812
133	0xbe97d7f8	-0.2965696
134	0x3e3d36a4	0.18477875
135	0xbdfb4ab1	-0.12270106
136	0x3e69ae2a	0.22820345
137	0xbd5bf67c	-0.053701863
138	0x3e8718af	0.2638602
139	0x3e8adb11	0.2712026
140	0xbdc23ca2	-0.09484221
141	0x3d7f0823	0.06226362
142	0xbeafe118	-0.3435142
143	0xbead4351	-0.3384042
144	0xbe656829	-0.22403015
145	0xbecc2ec3	-0.39879426
146	0x3ddbfc10	0.107414365
147	0x3e10d2d1	0.1414292
148	0xbe931935	-0.2873017
149	0x3dc1e65b	0.09467765
150	0xbdc12e61	-0.09432674
151	0x3cad85b1	0.021181913
152	0x3ecb5e3a	0.39720327
153	0x3de766f3	0.11298933
154	0xbe90c874	-0.28277934
155	0xbecaeb51	-0.39632657
156	0xbd914166	-0.07092552
157	0x3ece0407	0.40237448
158	0x3ec643c9	0.3872359
159	0xbddddb31	-0.10832823
160	0x3e4b6435	0.19862445
161	0x3d4c354c	0.049855515
162	0x3eaac334	0.33352053
163	0xbe1d1946	-0.15341672
164	0xbdb3d03a	-0.087799504
165	0x3e53c128	0.20679152
166	0x3dbf3aaf	0.09337365
167	0x3ea23525	0.3168117
168	0x3d379aa9	0.04482523
169	0x3ed048a8	0.40680432
170	0x3d97955a	0.074015334
171	0xbe1f6c19	-0.1556858
172	0x3e16d819	0.14730872
173	0xbe124f0f	-0.14287971
174	0x3e269d60	0.16270971
175	0xbdebeb6b	-0.11519512
176	0xbd56e4f7	-0.05246445
177	0x3ed91977	0.4240224
178	0x3e4bc43a	0.19899073
179	0x3e931102	0.28723913
180	0x3ea9cf94	0.33166182
181	0x3e78b0d4	0.24286205
182	0xbe6ac8a0	-0.22928095
183	0xbeb206b5	-0.34770742
184	0xbe256995	-0.16153558
185	0xbea5305f	-0.32263467
186	0x3e4e9207	0.20172893
187	0x3e8087d6	0.25103635
188	0xbe260edc	-0.16216606
189	0xbe246936	-0.1605576
190	0x3e94f1ef	0.2909083
191	0xbd54050f	-0.051762637
192	0x3e2ae193	0.16687612
193	0xbe659971	-0.22421815
194	0xbd94ff28	-0.0727523
195	0x3edebad2	0.43501908
196	0x3ec54429	0.38528565
197	0xbeca0577	-0.39457294
198	0xbe930f64	-0.2872268
199	0xbe3c6baa	-0.18400446
200	0x3eb20eb0	0.3477683
201	0x3ed925c8	0.42411637
202	0xbdfaac8c	-0.12239942
203	0xbe9010ed	-0.28137913
204	0x3e8f35b5	0.27970663
205	0x3e278af6	0.16361603
206	0x3e2dba79	0.16965665
207	0xbea8d52e	-0.32975143
208	0x3d205b62	0.03914965
209	0x3e7f053e	0.24904343
210	0x3ee51cc7	0.44748518
211	0x3e7a6236	0.24451527
212	0xbe3e6403	-0.18592839
213	0xbd908b35	-0.07057802
214	0xbe11d927	-0.14242993
215	0xbe302d39	-0.17204751
216	0x3e01104e	0.12603876
217	0x3b75f6f9	0.003753124
218	0xbe97991d	-0.29609004
219	0x3e8b1180	0.2716179
220	0xbec1afa9	-0.3782933
221	0xbdf9d847	-0.12199455
222	0xbeaa3325	-0.33242145
223	0x3eecde35	0.4626328
224	0xbd98225a	-0.07428427
225	0x3dedbd8f	0.11608421
226	0xbca272f9	-0.019830214
227	0xbd842068	-0.064514935
228	0x3d4d3e4d	0.050108243
229	0xbe675baa	-0.22593561
230	0x3e23d56c	0.15999383
231	0xbe172673	-0.14760761
232	0x3e3a1aaf	0.18174241
233	0x3e509457	0.20369087
234	0x3e36a67f	0.1783695
235	0x3eb40598	0.35160518
236	0xbec5f5f7	-0.3866422
237	0x3e839717	0.2570121
238	0x3ed5ba52	0.41743714
239	0x3d81db09	0.06340606
240	0x3e9d793d	0.3075656
241	0xbed17c15	-0.4091498
242	0x3e7f1042	0.24908546
243	0x3e8442c0	0.25832176
244	0xbdecc5d2	-0.11561169
245	0x3d5993d5	0.0531195
246	0xbe93d561	-0.28873733
247	0x3d85abdb	0.065269195
248	0x3e188e17	0.14897953
249	0x3d14ba60	0.036310554
250	0x3e86e05d	0.2634305
251	0x3d46d0da	0.04853902
252	0xbcffbb9f	-0.031217394
253	0xbe9a9d50	-0.30198145
254	0xbea22863	-0.31671438
255	0xbe541500	-0.20711136
