workspace/suphx-reward-shaping/weights/numpy/weights_no_logistic_TD_3_layer_0.npy (npy, 2560 bytes, 1 tensors)

array f4 [19, 32]
00000000: 15b5 82be 533e 233e b2c0 a5be 6e6d 383d
00000010: 6975 853d 9008 54bf 7936 a53e f55c dc3d
00000020: 59a0 b4be e010 4a3e 1e39 29be ffe3 cdbe
00000030: 4c6c 02bf b5e3 c7ba c96c e43e 25c4 26bd
00000040: 4b98 7fbe 909e f13d 6b01 253e 2fc0 9dbe
00000050: 6984 a93e f1b9 94bc a20a 40be a645 dc3d
00000060: 9a03 843e 7f31 96be ef2a d9be f130 aabc
00000070: 7480 af3e 4e2f 7d3e a23d 083e 5877 783e
00000080: 8e9b 443e be8d a6be 2121 03bf 229d 6a3d
00000090: 2a9f f63d 83ae 223f 35c9 db3e 60e6 febe
000000a0: 83d8 043f 5871 27be d940 ec3e 5736 e13c
000000b0: 83a3 de3d 08fd 55be d1c4 04bf 73cc 723e
000000c0: 5888 2f3a 58f8 363e 3493 adbe 090b cb3e
000000d0: 1f4e 3ebe 8479 d23e 2d46 d8be 24d8 d9be
000000e0: 9bdb 0e3e 08c6 d93e 7fd0 91be 1e2f d23e
000000f0: 7897 be3e b690 263e c208 6abe 1eb3 04be
00000100: 8a42 4e3e 97b8 15bd 6ebc 9e3e 1a64 9abc
00000110: b896 623e 7570 cc3e f20a 6c3e 0b7b 1d3f
00000120: fcfb c0be 99d1 c63d 8f25 593e 8bdd 85bd
00000130: 5583 2a3e 8fbe cbbe bbb1 93bc 4f9b ce3e
00000140: 6afd 53be 06f1 8abe 0278 0e3e d4ae 64be
00000150: d625 cdbd 0496 743e 62d3 c1be a34c a6bc
00000160: 5b05 03bf 5222 5dbe 8ff9 7a3c 011f 6fbf
00000170: fd62 c4bc 7db1 48bf ce88 01bf cbfc 6bbe
00000180: 4873 19be 2e6b 17be 5cb5 e53e 13a1 10be
00000190: 3368 f53e 1f3c fc3e 25f0 b6bd 25ca 3bbe
000001a0: 1f6e 91be 89e8 4b3f b93a 20bf e577 0f3e
000001b0: 640b 703e 2d57 ac3e 5193 833e d05b 7d3e
000001c0: 46e4 a7be f7e2 a13c 1130 b4be 178b 9bbe
000001d0: aee8 0abe 9fd1 8cbe 0852 83be b299 b53e
000001e0: 347f b1bd f634 a3be 4981 d53e bc87 d23e
000001f0: abe4 b03e a02b 2a3e 24fe 143f 9bcf 433d
00000200: 9592 b73e e96b cebe e77b a2be bb68 1dbe
00000210: 5036 373e f8d7 97be a436 3d3e b14a fbbd
00000220: 2aae 693e 7cf6 5bbd af18 873e 11db 8a3e
00000230: a23c c2bd 2308 7f3d 18e1 afbe 5143 adbe
00000240: 2968 65be c32e ccbe 10fc db3d d1d2 103e
00000250: 3519 93be 5be6 c13d 612e c1bd b185 ad3c
00000260: 3a5e cb3e f366 e73d 74c8 90be 51eb cabe
00000270: 6641 91bd 0704 ce3e c943 c63e 31db ddbd
00000280: b9cd 343e f375 eb3c 061b 8d3e 4619 1dbe
00000290: b5b4 dbbd df04 703e 0e8d f93d e4eb ae3e
000002a0: cd19 2a3d a728 e63e 2bb3 393d 196c 1fbe
000002b0: f728 833d 0f4f 12be 6dff 813e 7d82 efbd
000002c0: 8817 ebbc a32e d83e 353b 103e 0211 933e
000002d0: 94cf a93e d4b0 783e 2b52 86be 3673 cebe
000002e0: 10a8 38be 5f30 a5be 0792 4e3e 0bed 683e
000002f0: c515 0cbe be23 6abe cf6a 753e 0f05 54bd
00000300: f16b 1b3e 7199 65be 574f a1bc 02e8 d13e
00000310: b51c d83e 7705 cabe 0edb 9cbe aa6b 3cbe
00000320: 1e0f a43e 1694 9d3e d90f 2ebe 5e41 86be
00000330: 266b 9a3e 5320 593e 1181 8f3d f180 adbe
00000340: ecfb 97bb 3e05 7f3e 61a5 d63e 24c1 943e
00000350: f8e8 90be 358b 90bd 7a76 c1bd 392d 30be
00000360: 4e10 013e f9f6 753b 1d99 97be 3cd5 673e
00000370: a9af c1be 7bf6 48be 7d33 a3be 41e1 c13e
00000380: 5a22 98bd 8fbd ed3d f972 a2bc 6820 84bd
00000390: 4d3e 4d3d aa5b 67be 6cd5 233e 7326 17be
000003a0: af1a 3a3e 5794 503e 7fa6 363e 9805 b43e
000003b0: f7f5 c5be 1797 833e 52ba d53e 09db 813d
000003c0: 3d79 9d3e 157c d1be 4210 7f3e c042 843e
000003d0: d2c5 ecbd d593 593d 61d5 93be dbab 853d
000003e0: 178e 183e 60ba 143d 5de0 863e dad0 463d
000003f0: 9fbb ffbc 509d 9abe 6328 a2be 0015 54be
-0.2552878 0.15941744 -0.32373577 0.045026235 0.06516535 -0.82825565 0.32268122 0.10759918
-0.35278586 0.19733 -0.16525695 -0.4021301 -0.509465 -0.0015250357 0.44614246 -0.0407144
-0.24960439 0.117978215 0.16113822 -0.30810687 0.33108833 -0.01815507 -0.18754056 0.10755472
0.25783998 -0.29334638 -0.42415568 -0.02077529 0.3427769 0.24725077 0.13304761 0.24264276
0.19199964 -0.32530016 -0.51222426 0.05727876 0.12042077 0.63547534 0.42926946 -0.49785137
0.5189287 -0.16351831 0.46143225 0.027491732 0.10871031 -0.20897305 -0.5186282 0.23710804
0.0006696037 0.17868173 -0.3390137 0.39656857 -0.18584488 0.41108334 -0.4224104 -0.42547715
0.1395096 0.42533898 -0.28479382 0.41051573 0.37224936 0.1626614 -0.22854903 -0.12958953
0.2014257 -0.03655299 0.31003135 -0.01884656 0.22127807 0.39929548 0.2305105 0.61515874
-0.3769225 0.09707946 0.21205734 -0.065363966 0.16651662 -0.39793822 -0.018029084 0.40352866
-0.20702139 -0.2713701 0.13912967 -0.22332317 -0.10016982 0.23885351 -0.37856585 -0.020300215
-0.51180047 -0.21595123 0.0153182885 -0.93406683 -0.023972983 -0.78395826 -0.5059937 -0.23045652
-0.14985383 -0.1478698 0.4486493 -0.14123945 0.4793106 0.4926462 -0.08932523 -0.18338831
-0.28404328 0.79651695 -0.62589604 0.1401058 0.23441845 0.3366026 0.2569833 0.24742055
-0.32791346 0.019761546 -0.35192922 -0.30379555 -0.13565323 -0.27503678 -0.25648522 0.35468823
-0.0866684 -0.31876343 0.417002 0.41119182 0.3454946 0.16618204 0.5820029 0.04780541
0.3585402 -0.40316704 -0.31735155 -0.15371983 0.17891812 -0.2965696 0.18477875 -0.12270106
0.22820345 -0.053701863 0.2638602 0.2712026 -0.09484221 0.06226362 -0.3435142 -0.3384042
-0.22403015 -0.39879426 0.107414365 0.1414292 -0.2873017 0.09467765 -0.09432674 0.021181913
0.39720327 0.11298933 -0.28277934 -0.39632657 -0.07092552 0.40237448 0.3872359 -0.10832823
0.17656602 0.028742766 0.2755968 -0.15341672 -0.107278265 0.23439358 0.12185107 0.34164345
0.04152851 0.4495289 0.045336884 -0.1556858 0.06404298 -0.14287971 0.25390187 -0.116948105
-0.028697744 0.4222308 0.14085086 0.28723913 0.33166182 0.24286205 -0.26234564 -0.40322274
-0.18032861 -0.32263467 0.20172893 0.22746675 -0.1368018 -0.22865197 0.23966525 -0.051762637
0.15177895 -0.22421815 -0.019691152 0.4099732 0.42209402 -0.39457294 -0.30635875 -0.18400446
0.32042783 0.30777043 -0.16998233 -0.26221746 0.30159873 0.21203737 0.07007039 -0.33887437
-0.0046381857 0.24904343 0.4192305 0.29053605 -0.2830274 -0.07057802 -0.09446426 -0.17204751
0.12603876 0.003753124 -0.29609004 0.22639936 -0.3782933 -0.19625275 -0.3187522 0.37867168
-0.07428427 0.11608421 -0.019830214 -0.064514935 0.050108243 -0.22593561 0.15999383 -0.14760761
0.18174241 0.20369087 0.1783695 0.35160518 -0.3866422 0.2570121 0.41743714 0.06340606
0.3075656 -0.4091498 0.24908546 0.25832176 -0.11561169 0.0531195 -0.28873733 0.065269195
0.14897953 0.036310554 0.2634305 0.04853902 -0.031217394 -0.30198145 -0.31671438 -0.20711136
