workspace/suphx-reward-shaping/weights/numpy/weights_no_logistic_TD_0_layer_0.npy (npy, 2560 bytes, 1 tensors)

array f4 [19, 32]
00000000: ff79 dbbd 682f 413e cba4 4ebe 6e6d 383d
00000010: ff01 3d3d bd81 8bbe b084 6b3e 26d1 433f
00000020: c04e c7bd f267 513e 5c79 8bbe ed15 fcbe
00000030: f5e0 debe b5e3 c7ba 97f3 e83d e532 b9bc
00000040: 519b 7bbe 0c82 c3bd 03a8 9c3d 2fc0 9dbe
00000050: 6984 a93e f1b9 94bc 41c1 38be 35cf 23be
00000060: 1293 973e 7f31 96be ef2a d9be ae89 fa3d
00000070: d595 c23e 4d07 f03e 2697 203e 5877 783e
00000080: 329a 2e3e b8fe 9ebe af16 1bbf 229d 6a3d
00000090: 9ee8 053e 4edc 7d3e 7ba1 9a3e 9d1f 3bbf
000000a0: 99c8 773e 376a 1abe fd71 ec3e e6ad 7fbd
000000b0: fc96 27bd 08fd 55be 5eef 00be 731e 093e
000000c0: 1090 ddbd 7a58 bd3e f7af c3be 090b cb3e
000000d0: 1f4e 3ebe 8479 d23e 3a68 d4be 5dde c6be
000000e0: d764 0b3e 08c6 d93e 7fd0 91be 1901 d53e
000000f0: 3a54 af3e 7f16 c8bd 5fac a9be 1eb3 04be
00000100: 21f7 2b3e 5601 98bc 3154 113f 1a64 9abc
00000110: 757a 6b3e 8932 633e c405 403e 0a4e f43d
00000120: 006c e2bd e04e bd3e ec05 ee3d 1d87 54bd
00000130: 4291 c33a 8fbe cbbe 5ee6 29be 1356 e63e
00000140: 68e1 86be 620a 0bbe 27e3 4b3e d4ae 64be
00000150: d625 cdbd 0496 743e 1bab b6be b49a 8d3e
00000160: 2c01 2cbf 5222 5dbe 8ff9 7a3c 8e37 bcbe
00000170: 37a1 02be d571 40bf cfea 04bf cbfc 6bbe
00000180: 3b2f 1fbe 8d3f 08be 378a e53e 13a1 10be
00000190: 703c e43e 5351 ca3e 73d1 923d 8e25 85be
000001a0: af09 86be 9209 b13e 39ba 0cbf f5a0 ad3e
000001b0: e473 023f 2d57 ac3e 4a08 a2bd 5602 5b3e
000001c0: 85f7 84be 2046 ffbd 3c22 bebe 178b 9bbe
000001d0: aee8 0abe 9fd1 8cbe 65fd 77be 0770 9d3e
000001e0: 4e16 f4bd f634 a3be 4981 d53e 524a 6a3c
000001f0: ded9 f13e 2eec 293d d0ac 233f 9bcf 433d
00000200: 9592 b73e e96b cebe 8638 9abe bb68 1dbe
00000210: 2b76 193e f8d7 97be a436 3d3e c4bb bcbd
00000220: 2aae 693e 7cf6 5bbd cc91 573e 7614 8d3e
00000230: 2330 2abe 2308 7f3d 18e1 afbe d869 b8be
00000240: 2968 65be 75b9 d7be 1bab d23c d1d2 103e
00000250: 3519 93be 5be6 c13d a418 e6bd cf90 f9bc
00000260: bf3c af3e f366 e73d 74c8 90be 51eb cabe
00000270: 2304 1ebd 9e6e a23e c25b a83e 31db ddbd
00000280: 3564 4b3e 4c35 4c3d 34c3 aa3e 4619 1dbe
00000290: 3ad0 b3bd 28c1 533e af3a bf3d 2535 a23e
000002a0: a99a 373d a848 d03e 5a95 973d 196c 1fbe
000002b0: 19d8 163e 0f4f 12be 609d 263e 6beb ebbd
000002c0: f7e4 56bd 7719 d93e 3ac4 4b3e 0211 933e
000002d0: 94cf a93e d4b0 783e a0c8 6abe b506 b2be
000002e0: 9569 25be 5f30 a5be 0792 4e3e d687 803e
000002f0: dc0e 26be 3669 24be eff1 943e 0f05 54bd
00000300: f16b 1b3e 7199 65be 574f a1bc 02e8 d13e
00000310: b51c d83e 7705 cabe 0edb 9cbe aa6b 3cbe
00000320: 1e0f a43e 1694 9d3e d90f 2ebe 5e41 86be
00000330: 266b 9a3e 5320 593e 1181 8f3d f180 adbe
00000340: ecfb 97bb 3e05 7f3e 61a5 d63e 24c1 943e
00000350: f8e8 90be 358b 90bd 7a76 c1bd 392d 30be
00000360: 4e10 013e f9f6 753b 1d99 97be 3cd5 673e
00000370: a9af c1be 7bf6 48be 7d33 a3be 41e1 c13e
00000380: 5a22 98bd 8fbd ed3d f972 a2bc 6820 84bd
00000390: 4d3e 4d3d aa5b 67be 6cd5 233e 7326 17be
000003a0: af1a 3a3e 5794 503e 7fa6 363e 9805 b43e
000003b0: f7f5 c5be 1797 833e 52ba d53e 09db 813d
000003c0: 3d79 9d3e 157c d1be 4210 7f3e c042 843e
000003d0: d2c5 ecbd d593 593d 61d5 93be dbab 853d
000003e0: 178e 183e 60ba 143d 5de0 863e dad0 463d
000003f0: 9fbb ffbc 509d 9abe 6328 a2be 0015 54be
-0.10716628 0.1886574 -0.20180051 0.045026235 0.04614448 -0.2724742 0.22999835 0.7649101
-0.09731817 0.20449808 -0.27241027 -0.49235478 -0.43531004 -0.0015250357 0.11374586 -0.022607276
-0.24570967 -0.09546289 0.07649233 -0.30810687 0.33108833 -0.01815507 -0.1804247 -0.15997012
0.29604393 -0.29334638 -0.42415568 0.122332916 0.38004938 0.4688057 0.15682659 0.24264276
0.17051008 -0.3105371 -0.6058149 0.05727876 0.13077018 0.24791071 0.30201325 -0.73095113
0.24197616 -0.1507958 0.46180716 -0.0624217 -0.040915474 -0.20897305 -0.12591311 0.13390522
-0.10818493 0.36981565 -0.38220188 0.39656857 -0.18584488 0.41108334 -0.4148577 -0.38841525
0.13612686 0.42533898 -0.28479382 0.416024 0.34243947 -0.09769916 -0.3313932 -0.12958953
0.16793491 -0.018555325 0.5676909 -0.01884656 0.22995932 0.22187246 0.187522 0.11928947
-0.110557556 0.3697424 0.11622223 -0.051886667 0.001492061 -0.39793822 -0.16591784 0.44987544
-0.26343846 -0.1357818 0.1991087 -0.22332317 -0.10016982 0.23885351 -0.35677418 0.27657092
-0.6718929 -0.21595123 0.0153182885 -0.36761135 -0.12756811 -0.75173694 -0.5192079 -0.23045652
-0.1554536 -0.13305493 0.44832012 -0.14123945 0.4457736 0.3951517 0.071688555 -0.26005214
-0.26179263 0.34577614 -0.54971653 0.33911863 0.50958085 0.3366026 -0.07911737 0.2138761
-0.25970092 -0.12464547 -0.37135494 -0.30379555 -0.13565323 -0.27503678 -0.24217756 0.30749533
-0.11918317 -0.31876343 0.417002 0.014299946 0.47236532 0.041485004 0.63935566 0.04780541
0.3585402 -0.40316704 -0.3012125 -0.15371983 0.14986484 -0.2965696 0.18477875 -0.09215501
0.22820345 -0.053701863 0.21051711 0.27554673 -0.16619925 0.06226362 -0.3435142 -0.36018252
-0.22403015 -0.4213368 0.025716355 0.1414292 -0.2873017 0.09467765 -0.112351686 -0.030464558
0.34226033 0.11298933 -0.28277934 -0.39632657 -0.038578164 0.3172502 0.32882506 -0.10832823
0.19862445 0.049855515 0.33352053 -0.15341672 -0.087799504 0.20679152 0.09337365 0.3168117
0.04482523 0.40680432 0.074015334 -0.1556858 0.14730872 -0.14287971 0.16270971 -0.11519512
-0.05246445 0.4240224 0.19899073 0.28723913 0.33166182 0.24286205 -0.22928095 -0.34770742
-0.16153558 -0.32263467 0.20172893 0.25103635 -0.16216606 -0.1605576 0.2909083 -0.051762637
0.15177895 -0.22421815 -0.019691152 0.4099732 0.42209402 -0.39457294 -0.30635875 -0.18400446
0.32042783 0.30777043 -0.16998233 -0.26221746 0.30159873 0.21203737 0.07007039 -0.33887437
-0.0046381857 0.24904343 0.4192305 0.29053605 -0.2830274 -0.07057802 -0.09446426 -0.17204751
0.12603876 0.003753124 -0.29609004 0.22639936 -0.3782933 -0.19625275 -0.3187522 0.37867168
-0.07428427 0.11608421 -0.019830214 -0.064514935 0.050108243 -0.22593561 0.15999383 -0.14760761
0.18174241 0.20369087 0.1783695 0.35160518 -0.3866422 0.2570121 0.41743714 0.06340606
0.3075656 -0.4091498 0.24908546 0.25832176 -0.11561169 0.0531195 -0.28873733 0.065269195
0.14897953 0.036310554 0.2634305 0.04853902 -0.031217394 -0.30198145 -0.31671438 -0.20711136
