workspace/suphx-reward-shaping/weights/numpy/weights_no_logistic_TD_7_layer_1.npy (npy, 4224 bytes, 1 tensors)

array f4 [32, 32]
00000000: 0b93 2dbb be12 743e 658f 25be dd76 083e
00000010: 82e8 a7be c5bc 51be e3c5 fc3c 16db d43e
00000020: caed 90be efa5 8d3d 02ca 2abe beb4 a43e
00000030: e60b 463e 24d8 fbbd efd4 40bd a790 afbb
00000040: 6a82 7a39 94fb 7d3e fdb4 30be d3bd 9dbd
00000050: 5655 223e cc8b 1cbe e50f 19be 3d60 983e
00000060: 223d 693e 9e7b 5cbe 15fd 48bb 389c aebe
00000070: 9777 efbd d41e aabe 575b cabd 35a3 25bf
00000080: 2941 533e 1254 85bd aa06 1abe 1985 0fbf
00000090: 4f41 44be 17b9 d3be 2820 9c3e add9 d63e
000000a0: 9b64 073d 0dba e33e 7475 71be cef1 8b3f
000000b0: 520d c63e b66d dfbf 2f30 e2bd dc4f 473f
000000c0: 4d34 e0bd a53f 6abd f661 8dbc e3dd 8f3e
000000d0: c0ca c8be 03e7 e63d 9ae5 70be 213d 92be
000000e0: a0ca c9bf 654d babe 1dcd 1abf eea2 d3be
000000f0: 5167 4a3e 5bda 753e 577b 403e b852 71bf
00000100: b0a6 10be 5ecc 21be 267a a7bd a32a e2bd
00000110: c082 2d3d df3a b1be c4d1 8a3d 2d89 f83c
00000120: 47c3 3cbe 5fd3 1ebe 15b2 2dbe 0c8c b53e
00000130: 52c9 883e 737b 843d 5969 953e 4178 533e
00000140: b158 abbc 5f34 663e ad8a 4f3e dcf3 29be
00000150: aa0e f43d db0c 4fbe 37d7 83be 170c 8c3e
00000160: 3d11 87bd 4c1d e73d 5c47 933e ba1f 34be
00000170: b722 b6be 4606 8a3e 53e5 423e 2388 a43e
00000180: 8b6d 6b3e 4b0b 4cbe 1869 9cbe 2cde cf3d
00000190: e761 db3b 76e6 3ebe b6d3 7c3e 1e41 533e
000001a0: 622e 1d3d cee8 8abe 763a 23bc 6147 dbbd
000001b0: 4479 a3bd 9e04 69be d245 973c 0522 863c
000001c0: 9438 79be a9f7 9d3d 0c80 853d 9f67 d13d
000001d0: c7de 3d3e b2aa 23be 1ed6 553c fbfa fcbd
000001e0: 146b 8ebe eb2a 9abe ea6a 903c 805b 91be
000001f0: d043 b03d 12fe ffbd 9689 9dbd acca b6bd
00000200: 5738 473e 4865 813e d364 b0bd 7771 733e
00000210: c2ac 2fbc b654 0dbe 26c9 773e e384 893e
00000220: 1100 40be 2bfc 89be 70f4 533e a653 563e
00000230: 8b49 673e 5941 85bd 68b0 01be 4e2b be3d
00000240: 4190 893d a349 903e 2737 833e a55d 34be
00000250: 3faa 06bd f9e7 d7bc 8c9f b33d 042b 08be
00000260: 901b 963d d67d 703e 59a3 d2bb 8e8f 663d
00000270: 9ad2 0fbd d57f 88bd 7aa7 403d 4f06 34be
00000280: 8af5 27bf bc4a e3be 1d29 093d ba8c eabc
00000290: 91bc 57be 355a a2be a420 f33e 7a5c b43e
000002a0: 6f1c 7abf a443 c33e 708e 9cbe fd6e 223e
000002b0: 28b4 d6bd 124b e6be 49f5 393e f2a2 71bd
000002c0: 4532 94be 2bca a73d c5d2 2fbc 666e 4f3e
000002d0: 850c 57be 188d 74be ba32 6abe 98f8 483e
000002e0: c604 8e3e c3cd edbe 9f91 533e 6e4c a83e
000002f0: d967 09bf 2553 813e bb72 d53e b30d 86bf
00000300: 086d 303e ba7c f53d 3fae be3e 9000 203e
00000310: af41 903d 5f99 3d3e e8d2 9a3d 2041 7f3d
00000320: d4e0 2f3e dc4e 32be e531 613e c8eb fe3d
00000330: b64d 11bd d7f8 d5bd d8a0 25be f750 9c3e
00000340: 3ca9 ddbb 62c6 05bc 5f0f a13d d5ed 28be
00000350: 188a 6d3e 7cee 84be 6471 8bbe 5304 b93c
00000360: eae4 3f3d 78d3 40be 3f6b 0dbe 4fd3 ddbd
00000370: eb77 43bd 475b 7dbe 7323 70be 0637 d83d
00000380: 5dfc 333e 5a0d 06be 909e b93e 6b02 753d
00000390: f263 833d 1dd7 67be 745e ab3d 0827 863e
000003a0: cd72 2cbc bbcd b2be befe 183e ae54 073d
000003b0: e5fd 7f3d 4771 54bd 20bd 413d de1e d6bc
000003c0: 7772 89bd 2471 bb3e ae46 c23e 7491 803c
000003d0: c87c 613e 64f5 44be 2402 0c3e 9299 f1bd
000003e0: c3c6 c5bd ff95 953e 93df 953e e0dc 97be
000003f0: 7010 823e 4177 19be 1d73 8a3e 3200 723e
-0.002648535 0.23835275 -0.16167982 0.13326593 -0.32794577 -0.20482166 0.030856078 0.415734
-0.2830642 0.06916415 -0.16678622 0.32169145 0.19340476 -0.12297085 -0.04707807 -0.00535782
0.00023890441 0.24803 -0.17256542 -0.07702222 0.15852866 -0.15287703 -0.1494747 0.29760924
0.22777227 -0.21531531 -0.0030668427 -0.3410356 -0.11692732 -0.33226645 -0.09880703 -0.6470216
0.20630325 -0.06510176 -0.15041605 -0.56062466 -0.19165538 -0.4135215 0.30493283 0.41962948
0.03305493 0.44477883 -0.23579961 1.0933168 0.38682038 -1.7455356 -0.110443465 0.7785623
-0.109474756 -0.057189602 -0.017258625 0.28098974 -0.39217186 0.11274531 -0.23525086 -0.28562263
-1.5764961 -0.36387172 -0.6046923 -0.41335243 0.19765975 0.24009077 0.1879705 -0.94266844
-0.14126086 -0.15800616 -0.08177595 -0.110432886 0.04236102 -0.34615228 0.06778291 0.030338848
-0.18433867 -0.15510319 -0.16962464 0.3545841 0.26716095 0.064688586 0.29181936 0.20651342
-0.020916315 0.22480915 0.20267744 -0.16596931 0.119168594 -0.20219748 -0.25750133 0.27352974
-0.06595085 0.11284885 0.2876538 -0.17590228 -0.3557336 0.2695791 0.19032793 0.32135114
0.22991006 -0.19926183 -0.3054893 0.10149798 0.0066950205 -0.18642601 0.24690136 0.20630309
0.038374312 -0.2713074 -0.009962669 -0.10706974 -0.07982114 -0.22755668 0.01846591 0.016373644
-0.24337989 0.07713253 0.06518564 0.10224842 0.18542014 -0.15983084 0.013051538 -0.12352558
-0.2781607 -0.3011087 0.017629106 -0.2839012 0.08606684 -0.12499632 -0.07692258 -0.08925375
0.19455086 0.25272584 -0.08612981 0.23773752 -0.010722341 -0.13801846 0.24197826 0.26859197
-0.18750025 -0.269502 0.20698714 0.20930347 0.22586648 -0.06506605 -0.1266495 0.092856035
0.067169674 0.2818118 0.25628015 -0.17613848 -0.032877203 -0.02635573 0.087706655 -0.13297659
0.07329476 0.23485503 -0.006428164 0.05628925 -0.035112955 -0.06665007 0.047034718 -0.17580532
-0.6560904 -0.44392955 0.033486474 -0.028631557 -0.21068026 -0.31709448 0.4748584 0.35226804
-0.97699636 0.38137543 -0.3057742 0.15862651 -0.10483581 -0.4497915 0.18159975 -0.058993287
-0.28944603 0.08192857 -0.010731404 0.20256957 -0.2100087 -0.23881948 -0.22870913 0.19626081
0.27738017 -0.46446046 0.20661019 0.3287081 -0.53674084 0.25258747 0.41689095 -1.0472931
0.17229092 0.1198668 0.37242314 0.15625215 0.07043778 0.18515538 0.075597584 0.062317967
0.17175609 -0.17412895 0.2199169 0.124473155 -0.0354745 -0.10447853 -0.16174638 0.3053052
-0.006764559 -0.008164974 0.0786426 -0.16496976 0.2319721 -0.259632 -0.27234948 0.02258507
0.04684917 -0.18830669 -0.13810442 -0.108313195 -0.047721785 -0.24741851 -0.23451023 0.1055737
0.17576738 -0.1309103 0.36253786 0.05981676 0.064155474 -0.22640653 0.08367625 0.26201653
-0.0105254175 -0.34922585 0.14940926 0.03303974 0.062497992 -0.051865842 0.047299504 -0.026137765
-0.067112856 0.36609757 0.3794455 0.015694357 0.22020257 -0.19234234 0.13672692 -0.11796869
-0.096570514 0.29216 0.29272136 -0.29660702 0.25403166 -0.14986898 0.2704095 0.23632887
