workspace/suphx-reward-shaping/weights/numpy/weights_no_logistic_TD_1_layer_2.npy (npy, 640 bytes, 1 tensors)

array f4 [32, 4]
0	0x3ebc6aba	0.36800176
1	0xbe44be29	-0.19213165
2	0x3edd8a7d	0.4326972
3	0x3df796e8	0.1208933
4	0xbe765b9f	-0.24058388
5	0xbd7bc9fa	-0.061471917
6	0xbd871f90	-0.06597817
7	0xbe6f8d66	-0.23393783
8	0x3e8ab238	0.27089095
9	0x3edec958	0.43512988
10	0x3b0dd288	0.002164038
11	0x3e129e56	0.14318213
12	0x3ede7074	0.4344517
13	0xbf008e8a	-0.502175
14	0x3e3f9388	0.18708622
15	0x3e576138	0.2103318
16	0x3ec5ccf7	0.38632938
17	0xbea1a2d9	-0.31569555
18	0xbe5eb4f9	-0.21748723
19	0x3def2eeb	0.11678871
20	0x3e8d12f2	0.27553517
21	0x3e33b0bf	0.17547892
22	0xbeace2f1	-0.33766893
23	0xbd851778	-0.06498617
24	0xbe22828b	-0.1587011
25	0x3e515cf4	0.20445615
26	0xbe2ed254	-0.17072421
27	0x3ea14466	0.31497496
28	0xbe574bca	-0.21025005
29	0x3da32369	0.07965738
30	0x3e6e4390	0.2326796
31	0xbe9555e8	-0.29167104
32	0x3cabcfc9	0.020973103
33	0xbdedcbb1	-0.11611117
34	0xbc9d5b3a	-0.01920854
35	0xbeb21b6b	-0.34786543
36	0x3d71eba8	0.05906263
37	0xbec6b811	-0.38812307
38	0x3dc5c280	0.096562386
39	0xbeb9e4fd	-0.36307517
40	0xbc360892	-0.011110442
41	0x3e9a6f0e	0.30162853
42	0xbe647da2	-0.2231355
43	0xbe9a630e	-0.30153698
44	0xbd507877	-0.050896134
45	0xbe1dbc18	-0.15403783
46	0xbeabec00	-0.3357849
47	0xbd0b77f8	-0.034049958
48	0xbe70a0a6	-0.23498783
49	0xbe4c6ce6	-0.19963416
50	0x3ec3c7f9	0.38238505
51	0x3cb0dbb8	0.021589145
52	0x3e0d77ad	0.13815184
53	0xbe9d3736	-0.30706185
54	0xbeabd1fe	-0.3355865
55	0x3d9a223a	0.075260594
56	0xbeae739c	-0.34072578
57	0x3e50f8d5	0.20407422
58	0xbdd3689d	-0.10322688
59	0x3e06e48c	0.13173121
60	0xbd8c0dde	-0.068385825
61	0x3e6b24e3	0.2296329
62	0x3e613687	0.21993457
63	0xbd1a7da6	-0.037717484
64	0x3d0a0201	0.033693317
65	0xbe19acfd	-0.15007396
66	0x3e739eee	0.23791096
67	0xbe30fb46	-0.17283353
68	0x3deade0e	0.11468135
69	0xbe87f39c	-0.26553047
70	0x3e845999	0.25849608
71	0x3ea2c47a	0.31790525
72	0x3e893234	0.26796114
73	0x3eb10248	0.34572053
74	0x3eb590dd	0.35462084
75	0xbda527d5	-0.08064238
76	0x3d8afdd7	0.06786697
77	0x3ebb4dd7	0.36582825
78	0xbe9a9507	-0.30191824
79	0xbf031f7c	-0.51219916
80	0x3e3ee193	0.18640737
81	0x3e0e6ffa	0.13909903
82	0x3d04c541	0.03241468
83	0x3d0dcbf3	0.03461833
84	0xbeca17fb	-0.3947142
85	0xbea68a92	-0.32527596
86	0xbecdc31b	-0.40187916
87	0x3ea3845a	0.31936914
88	0xbe614c81	-0.2200184
89	0x3e1821eb	0.14856689
90	0xbea195e3	-0.31559667
91	0x3e351c95	0.17686684
92	0xbe16a6e2	-0.14712098
93	0xbe5fe8ee	-0.218662
94	0x3dba0d97	0.09084623
95	0xbe6493d4	-0.22322017
96	0xbe8fe81e	-0.2810678
97	0x3e996b90	0.29964876
98	0x3e5ce2d6	0.21570906
99	0x3db6eac8	0.089315
100	0x3e343860	0.1759963
101	0xbea8b960	-0.3295393
102	0x3e01642b	0.12635867
103	0x3e54a465	0.20765837
104	0x3e28574b	0.1643955
105	0xbda12963	-0.07869222
106	0xbeb56cb6	-0.35434502
107	0x3e1a09ef	0.15042852
108	0x3e37bb83	0.17942624
109	0xbe4c6d9b	-0.19963686
110	0x3eaa1104	0.33216107
111	0xbecb0a6b	-0.39656386
112	0xbd910761	-0.070814855
113	0xbeb6390d	-0.355904
114	0xbdacfc99	-0.08446617
115	0xbea9d489	-0.33169964
116	0xbd72e0e1	-0.059296492
117	0x3eb5e930	0.3552947
118	0x3e2baf17	0.1676601
119	0xbe39411c	-0.18091244
120	0xbe222734	-0.15835267
121	0xbe879544	-0.26481068
122	0x3cc7bbcd	0.024381543
123	0x3c43c9db	0.011949982
124	0x3eaf683a	0.34259206
125	0xbe51ecaf	-0.20500444
126	0xbac12081	-0.0014734418
127	0xbe1713a2	-0.14753583
