workspace/suphx-reward-shaping/weights/numpy/weights_no_logistic_TD_5_layer_2.npy (npy, 640 bytes, 1 tensors)

array f4 [32, 4]
000000 e3 a8 fe 3e 64 48 1b be 02 b6 4a 3e 42 f8 c2 bd
       0.49738225 -0.15164334 0.19795993 -0.09520008
000010 61 55 e9 bd 97 6d 1f bc 79 ff 8e bd 12 76 5e be
       -0.11393238 -0.009730718 -0.06982321 -0.21724728
000020 60 9e a0 3e 55 48 d5 3e 2d c2 9d 3d ea 4e 29 3e
       0.3137083 0.41656747 0.07703052 0.1653401
000030 b1 79 b4 3e de 09 98 3a 11 1f 30 3e f3 e8 0d 3e
       0.35249093 0.001159962 0.17199351 0.13858394
000040 48 52 eb 3e aa 26 36 bf 88 09 93 3d e9 fc 93 3e
       0.45961213 -0.71152747 0.07179552 0.28903893
000050 62 c5 97 3e 30 67 38 3e f8 ff a2 be 13 53 91 bd
       0.2964278 0.18008113 -0.31835914 -0.07095923
000060 d3 c4 00 be 5c bf 7b 3e 96 78 f1 bd ba 9a 86 3e
       -0.12575082 0.24584717 -0.11790578 0.26289922
000070 66 05 1c bf ad db a7 3e 21 96 1c 3e 71 ca ad 3c
       -0.6094574 0.32784787 0.15291645 0.021214696
000080 2c e2 63 bc 87 7a 14 be 27 69 92 3c 10 0b be be
       -0.013908904 -0.14499865 0.017872406 -0.37117815
000090 87 22 a2 3d 10 f9 c0 be 82 39 a9 3d b7 76 b5 be
       0.07916742 -0.3769002 0.08262922 -0.35442135
0000a0 52 ec 02 3c 30 14 9d 3e 12 5a 98 be 35 ae 7b be
       0.007990913 0.30679464 -0.29756218 -0.24578173
0000b0 e9 46 89 3e 9e db 1f 3d 58 d9 c7 be d8 6d e8 bc
       0.26811913 0.039027803 -0.39033008 -0.02837269
0000c0 5e ac 0d bf 1f 8c 8f 3d 17 80 89 3e cf 5e 7f 3e
       -0.55341136 0.07009148 0.26855537 0.2493851
0000d0 ba 9f 4b 3e 98 24 83 be 84 ee ac be 4d 80 2a b9
       0.1988515 -0.25613856 -0.33775723 -0.00016260259
0000e0 66 85 73 be 67 3f 74 3e 03 dd 88 be e9 64 cb 3d
       -0.23781356 0.23852311 -0.2673112 0.099313565
0000f0 23 87 34 bd 67 a8 83 3e e8 55 5e 3e f1 c1 d3 bb
       -0.04407419 0.25714418 0.21712458 -0.0064623286
000100 d2 22 8f be e3 2a 10 3d 23 53 b1 3e c5 41 8c 3d
       -0.27956253 0.03519715 0.3463374 0.06848482
000110 79 f8 17 3e 34 c0 63 be 0e 42 8b 3e 07 dc a1 3e
       0.14840879 -0.22241288 0.27198833 0.3161318
000120 25 4c 96 3e ba ca 34 3e 00 a3 09 3f 37 2d 55 bf
       0.2935497 0.17655459 0.53764343 -0.8327212
000130 ad 40 65 3e ef cf cf 3e 53 fe 80 be 0e 41 b2 be
       0.22387953 0.40588328 -0.25194034 -0.34815258
000140 ce 5d 54 3e 25 3a 27 3e 08 96 0a 3d c1 87 2f 3d
       0.20738909 0.16330774 0.033834487 0.042854074
000150 fb 17 ca be 92 8a a6 be 1b c3 cd be 5a 84 a3 3e
       -0.3947142 -0.32527596 -0.40187916 0.31936914
000160 81 4c 61 be eb 21 18 3e e3 95 a1 be 95 1c 35 3e
       -0.2200184 0.14856689 -0.31559667 0.17686684
000170 9b e1 e6 bd 5b e7 5c be 67 b8 cb 3d 24 c7 5d be
       -0.112734996 -0.2157263 0.09947281 -0.21657997
000180 3c 55 7d be b2 f8 be 3e 11 6a 4f 3e 84 52 21 3e
       -0.24739546 0.37299114 0.20255305 0.15754133
000190 e6 0a 2d 3e 03 30 9b be 9f b9 26 3e d9 68 4e 3e
       0.16898689 -0.30310068 0.16281746 0.20157184
0001a0 43 0d b6 3e fe c2 ce b8 ee 01 eb be de 43 9b 3e
       0.35556993 -9.8591656e-05 -0.4589991 0.30325216
0001b0 83 bb 37 3e 9b 6d 4c be 04 11 aa 3e 6b 0a cb be
       0.17942624 -0.19963686 0.33216107 -0.39656386
0001c0 a6 ad 97 bd d8 90 bb be 51 75 d0 bd 41 ca b0 be
       -0.07406168 -0.36633945 -0.10178626 -0.34529307
0001d0 6b d1 84 bd 8a 11 b3 3e f2 ff 25 3e 5b f1 3e be
       -0.06485256 0.3497432 0.16210917 -0.18646757
0001e0 02 b4 88 3d 5d f3 26 bf fe ba f1 3e 41 fa 34 3e
       0.06674959 -0.6521509 0.47212976 0.1767359
0001f0 3a 68 af 3e af ec 51 be 81 20 c1 ba a2 13 17 be
       0.34259206 -0.20500444 -0.0014734418 -0.14753583
