workspace/suphx-reward-shaping/weights/numpy/weights_no_logistic_TD_5_layer_0.npy (npy, 2560 bytes, 1 tensors)

array f4 [19, 32]
-0.10716628 0.1886574 -0.6630716 0.045026235 0.12984174 -0.2724742 0.3945562 -0.14100954
0.040187813 0.16669089 -0.07677356 -0.8424371 -0.7593174 0.005074205 0.14773473 -0.42327538
-0.24570967 0.16644466 0.4051872 -0.3060115 0.3793996 -0.22402671 -0.11468604 0.1503536
0.19545153 -0.31203187 -0.42415568 -0.02917725 0.21388297 0.817788 0.2993945 0.24264276
0.17051008 -0.3105371 -0.46397775 0.05727876 0.24699877 0.24791071 0.09236997 -0.25740913
0.23943597 -0.076276734 0.29349214 0.053540498 0.02890779 -0.32352784 -0.23601155 0.45940527
-0.10818493 0.107375026 -0.4520125 0.4679925 -0.20649293 0.77383965 -0.4644347 -0.39695415
0.2080945 0.40964106 -0.28479382 0.68136495 0.48936227 -2.535111e-05 -0.16259083 -0.12958953
0.16793491 -0.018555325 0.5833993 -0.01884656 0.071078025 0.22187246 0.27006724 0.29143643
-0.06391096 0.2911331 0.10864815 0.12006329 0.273001 -0.5228881 -0.036529757 0.4878519
-0.26343846 -0.3031405 0.33583057 -0.35388124 -0.21031405 0.47575325 -0.40764704 -0.009537204
-0.39811838 -0.21429056 0.0153182885 -0.70179313 0.06833066 -0.66231906 -0.44919565 -0.23045652
-0.1554536 -0.13305493 0.59457415 -0.14123945 0.3954791 0.3951517 0.007301916 -0.021157922
-0.37568855 0.5039723 -0.5010818 0.3644223 0.52581316 0.4507633 -0.014711908 0.1985338
-0.25970092 0.11293286 -0.3858537 -0.38391352 -0.24475491 -0.50739384 -0.32755962 0.39980793
-0.13037694 -0.32061628 0.417002 0.24591129 0.24176006 0.016201394 0.38498122 0.04780541
0.3585402 -0.40316704 -0.31735155 -0.15371983 0.17891812 -0.2965696 0.18477875 -0.12270106
0.22820345 -0.053701863 0.2638602 0.2712026 -0.09484221 0.06226362 -0.3435142 -0.3384042
-0.22403015 -0.39879426 0.107414365 0.1414292 -0.2873017 0.09467765 -0.09432674 0.021181913
0.39720327 0.11298933 -0.28277934 -0.39632657 -0.07092552 0.40237448 0.3872359 -0.10832823
0.19862445 0.049855515 0.33352053 -0.15341672 -0.087799504 0.20679152 0.09337365 0.3168117
0.04482523 0.40680432 0.074015334 -0.1556858 0.14730872 -0.14287971 0.16270971 -0.11519512
-0.05246445 0.4240224 0.19899073 0.28723913 0.33166182 0.24286205 -0.22928095 -0.34770742
-0.16153558 -0.32263467 0.20172893 0.25103635 -0.16216606 -0.1605576 0.2909083 -0.051762637
0.15177895 -0.22421815 -0.019691152 0.4099732 0.42209402 -0.39457294 -0.30635875 -0.18400446
0.32042783 0.30777043 -0.16998233 -0.26221746 0.30159873 0.21203737 0.07007039 -0.33887437
-0.0046381857 0.24904343 0.4192305 0.29053605 -0.2830274 -0.07057802 -0.09446426 -0.17204751
0.12603876 0.003753124 -0.29609004 0.22639936 -0.3782933 -0.19625275 -0.3187522 0.37867168
-0.07428427 0.11608421 -0.024143731 -0.064514935 0.021079842 -0.22593561 0.14985065 -0.1690197
0.2012912 0.21303 0.13918257 0.34823456 -0.45146984 0.21944633 0.4495731 0.0069492618
0.3075656 -0.4091498 0.27704164 0.2241385 -0.15565874 0.11758111 -0.33011487 0.046155985
0.14897953 0.021788212 0.2634305 0.07429796 -0.017439544 -0.28082398 -0.3387568 -0.20711136
00000000: ff79 dbbd 682f 413e 0fbf 29bf 6e6d 383d
00000010: 3cf5 043e bd81 8bbe 4503 ca3e ce64 10be
00000020: fa9b 243d 04b1 2a3e 753b 9dbd f5a9 57bf
00000030: a062 42bf 8445 a63b c647 173e 8db7 d8be
00000040: 519b 7bbe 7870 2a3e b274 cf3e 8aad 9cbe
00000050: aa40 c23e 4267 65be 84e0 eabd 4bf6 193e
00000060: 7224 483e a4c2 9fbe ef2a d9be 2105 efbc
00000070: 2304 5b3e 8e5a 513f 3c4a 993e 5877 783e
00000080: 329a 2e3e b8fe 9ebe 7e8e edbe 229d 6a3d
00000090: 3fed 7c3e 4edc 7d3e 782c bd3d 21cb 83be
000000a0: b42e 753e fa36 9cbd 9a44 963e 484d 5b3d
000000b0: 08d0 ec3c 71a5 a5be 03ad 71be 2b37 eb3e
000000c0: 1090 ddbd 70e7 db3d 2f6e e7be b79c ef3e
000000d0: e272 53be 5b1a 463f 63ca edbe 933d cbbe
000000e0: b916 553e 79bc d13e 7fd0 91be ef6d 2e3f
000000f0: b18d fa3e 18a9 d4b7 367e 26be 1eb3 04be
00000100: 21f7 2b3e 5601 98bc a859 153f 1a64 9abc
00000110: 5b91 913d 8932 633e 4146 8a3e 2837 953e
00000120: c0e3 82bd 660f 953e ec82 de3d bee3 f53d
00000130: c9c6 8b3e ffdb 05bf 3aa0 15bd b9c7 f93e
00000140: 68e1 86be 3b35 9bbe fcf1 ab3e ec2f b5be
00000150: 915c 57be ee95 f33e 1db7 d0be ef41 1cbc
00000160: 2cd6 cbbe fc6e 5bbe 8ff9 7a3c b7a8 33bf
00000170: f2f0 8b3d be8d 29bf f9fc e5be cbfc 6bbe
00000180: 3b2f 1fbe 8d3f 08be 0336 183f 13a1 10be
00000190: 3d7c ca3e 5351 ca3e e944 ef3b 6153 adbc
000001a0: 405a c0be 5404 013f e646 00bf 8f95 ba3e
000001b0: b19b 063f 72ca e63e 370a 71bc 724c 4b3e
000001c0: 85f7 84be 5849 e73d 9e8e c5be 5090 c4be
000001d0: 08a1 7abe 90e4 01bf e5b5 a7be a0b3 cc3e
000001e0: 8881 05be d127 a4be 4981 d53e 2bd0 7b3e
000001f0: f38f 773e c9b8 843c 421c c53e 9bcf 433d
00000200: 9592 b73e e96b cebe e77b a2be bb68 1dbe
00000210: 5036 373e f8d7 97be a436 3d3e b14a fbbd
00000220: 2aae 693e 7cf6 5bbd af18 873e 11db 8a3e
00000230: a23c c2bd 2308 7f3d 18e1 afbe 5143 adbe
00000240: 2968 65be c32e ccbe 10fc db3d d1d2 103e
00000250: 3519 93be 5be6 c13d 612e c1bd b185 ad3c
00000260: 3a5e cb3e f366 e73d 74c8 90be 51eb cabe
00000270: 6641 91bd 0704 ce3e c943 c63e 31db ddbd
00000280: 3564 4b3e 4c35 4c3d 34c3 aa3e 4619 1dbe
00000290: 3ad0 b3bd 28c1 533e af3a bf3d 2535 a23e
000002a0: a99a 373d a848 d03e 5a95 973d 196c 1fbe
000002b0: 19d8 163e 0f4f 12be 609d 263e 6beb ebbd
000002c0: f7e4 56bd 7719 d93e 3ac4 4b3e 0211 933e
000002d0: 94cf a93e d4b0 783e a0c8 6abe b506 b2be
000002e0: 9569 25be 5f30 a5be 0792 4e3e d687 803e
000002f0: dc0e 26be 3669 24be eff1 943e 0f05 54bd
00000300: f16b 1b3e 7199 65be 574f a1bc 02e8 d13e
00000310: b51c d83e 7705 cabe 0edb 9cbe aa6b 3cbe
00000320: 1e0f a43e 1694 9d3e d90f 2ebe 5e41 86be
00000330: 266b 9a3e 5320 593e 1181 8f3d f180 adbe
00000340: ecfb 97bb 3e05 7f3e 61a5 d63e 24c1 943e
00000350: f8e8 90be 358b 90bd 7a76 c1bd 392d 30be
00000360: 4e10 013e f9f6 753b 1d99 97be 3cd5 673e
00000370: a9af c1be 7bf6 48be 7d33 a3be 41e1 c13e
00000380: 5a22 98bd 8fbd ed3d 13c9 c5bc 6820 84bd
00000390: a2af ac3c aa5b 67be 7372 193e 8013 2dbe
000003a0: 481f 4e3e 8924 5a3e e085 0e3e cd4b b23e
000003b0: 0e27 e7be 8ab6 603e 722e e63e a2b6 e33b
000003c0: 3d79 9d3e 157c d1be 67d8 8d3e 9084 653e
000003d0: 0165 1fbe 5dce f03d d104 a9be 0f0e 3d3d
000003e0: 178e 183e 317d b23c 5de0 863e 8729 983d
000003f0: 60dd 8ebc 29c8 8fbe 8871 adbe 0015 54be
