workspace/suphx-reward-shaping/weights/numpy/weights_no_logistic_TD_2_layer_0.npy (npy, 2560 bytes, 1 tensors)

array f4 [19, 32]
-0.2149785 0.1886574 -0.29560697 0.045026235 0.103519596 -0.27750418 0.36694464 -0.13523646
-0.005379648 0.17628247 -0.23903376 -1.0837657 -0.3588314 0.11682894 0.11374586 -0.111299716
-0.2365494 0.10445454 0.12785304 -0.6623651 0.33108833 -0.01815507 -0.0005138968 -0.0077347574
0.19545153 -0.29334638 -0.42415568 0.00016177393 0.40964636 0.5597587 0.19143064 0.24264276
0.53953624 -0.3105371 -0.5221607 0.05727876 0.17588003 0.24253298 0.5647751 -0.23347676
0.09359786 -0.1659846 0.39313522 0.007920298 0.05570884 -0.04826473 -0.12591311 0.26935422
-0.007368114 0.114676245 -0.345585 0.8952385 -0.18584488 0.41108334 -0.44203618 -0.40512437
0.2080945 0.42533898 -0.28479382 0.3219821 0.3595299 -0.21706828 -0.1876974 -0.12958953
-0.21078768 -0.018555325 0.4327421 -0.01884656 0.11959778 0.2165097 0.37343442 0.32001305
0.048143845 0.33620757 0.2017201 0.50795066 0.19018403 -0.8071952 -0.16591784 0.46674353
-0.27942127 -0.17102197 0.26351354 -0.42381567 -0.10016982 0.23885351 -0.4385867 0.21964405
-0.39811838 -0.21595123 0.0153182885 -0.44014144 -0.071582906 -0.47246003 -0.46261737 -0.23045652
-0.19932571 -0.13305493 0.2839322 -0.14123945 0.41625988 0.3898156 -0.48694295 0.0049370606
-0.27730384 0.32730916 -0.5118003 0.6273767 0.35499245 0.30688506 -0.07911737 0.1451728
-0.25900793 0.033879254 -0.37416947 -0.21507697 -0.13565323 -0.27503678 -0.31668815 0.29245073
-0.13037694 -0.31876343 0.417002 0.31810108 0.384453 0.3281949 0.4609784 0.04780541
0.3585402 -0.40316704 -0.31735155 -0.15371983 0.17891812 -0.2965696 0.18477875 -0.12270106
0.22820345 -0.053701863 0.2638602 0.2712026 -0.09484221 0.06226362 -0.3435142 -0.3384042
-0.22403015 -0.39879426 0.107414365 0.1414292 -0.2873017 0.09467765 -0.09432674 0.021181913
0.39720327 0.11298933 -0.28277934 -0.39632657 -0.07092552 0.40237448 0.3872359 -0.10832823
0.19862445 0.049855515 0.33352053 -0.15341672 -0.087799504 0.20679152 0.09337365 0.3168117
0.04482523 0.40680432 0.074015334 -0.1556858 0.14730872 -0.14287971 0.16270971 -0.11519512
-0.05246445 0.4240224 0.19899073 0.28723913 0.33166182 0.24286205 -0.22928095 -0.34770742
-0.16153558 -0.32263467 0.20172893 0.25103635 -0.16216606 -0.1605576 0.2909083 -0.051762637
0.14729108 -0.22421815 -0.080188096 0.4099732 0.38489735 -0.399975 -0.25895426 -0.18400446
0.34883648 0.28147364 -0.2009439 -0.1852048 0.2775716 0.1652278 0.07007039 -0.36565995
0.01982528 0.2549197 0.37743565 0.33922815 -0.2830274 -0.07057802 -0.11928879 -0.2244618
0.12603876 0.003753124 -0.29609004 0.23455079 -0.33641386 -0.19277065 -0.36587417 0.37867168
-0.07428427 0.11608421 -0.019830214 -0.064514935 0.050108243 -0.22593561 0.15999383 -0.14760761
0.18174241 0.20369087 0.1783695 0.35160518 -0.3866422 0.2570121 0.41743714 0.06340606
0.3075656 -0.4091498 0.24908546 0.25832176 -0.11561169 0.0531195 -0.28873733 0.065269195
0.14897953 0.036310554 0.2634305 0.04853902 -0.031217394 -0.30198145 -0.31671438 -0.20711136
00000000: 5323 5cbe 682f 413e cc59 97be 6e6d 383d
00000010: 1502 d43d 0715 8ebe 2be0 bb3e 6d7b 0abe
00000020: c247 b0bb 6483 343e 44c5 74be d6b8 8abf
00000030: c0b8 b7be 0344 ef3d 97f3 e83d 1bf1 e3bd
00000040: 023a 72be 43ec d53d e8eb 023e c290 29bf
00000050: 6984 a93e f1b9 94bc 08b7 06ba d973 fdbb
00000060: 7224 483e 7f31 96be ef2a d9be dca1 2939
00000070: 2bbd d13e 594c 0f3f 6506 443e 5877 783e
00000080: 0c1f 0a3f b8fe 9ebe 53ac 05bf 229d 6a3d
00000090: e519 343e 915a 783e 1a95 103f 8814 6fbe
000000a0: 3cb0 bf3d def7 29be 0549 c93e 23c4 013c
000000b0: f42e 643d 3db1 45bd 5eef 00be cce8 893e
000000c0: 3870 f1bb 61db ea3d 84f0 b0be 5a2e 653f
000000d0: 1f4e 3ebe 8479 d23e 9152 e2be 766c cfbe
000000e0: b916 553e 08c6 d93e 7fd0 91be d6da a43e
000000f0: 4e14 b83e 2647 5ebe bf33 40be 1eb3 04be
00000100: bad8 57be 5601 98bc 5f90 dd3e 1a64 9abc
00000110: aeef f43d b8b4 5d3e cc32 bf3e c0d8 a33e
00000120: 7b32 453d 6623 ac3e b78f 4e3e 0e09 023f
00000130: 9abf 423e 58a4 4ebf 5ee6 29be 02f9 ee3e
00000140: 4e10 8fbe 6220 2fbe 3feb 863e 5efe d8be
00000150: d625 cdbd 0496 743e 708e e0be 5fea 603e
00000160: 2cd6 cbbe 5222 5dbe 8ff9 7a3c 385a e1be
00000170: 0f9a 92bd 48e6 f1be 2fdc ecbe cbfc 6bbe
00000180: 0a1c 4cbe 8d3f 08be 905f 913e 13a1 10be
00000190: 0420 d53e e995 c73e 9650 f9be 11c7 a13b
000001a0: c5fa 8dbe 1195 a73e 5805 03bf c29b 203f
000001b0: 92c1 b53e 0a20 9d3e 4a08 a2bd 2ea8 143e
000001c0: b09c 84be f9c4 0a3d 2493 bfbe 233d 5cbe
000001d0: aee8 0abe 9fd1 8cbe f324 a2be 1abc 953e
000001e0: 8881 05be f634 a3be 4981 d53e 25de a23e
000001f0: 06d7 c43e 2909 a83e 5c05 ec3e 9bcf 433d
00000200: 9592 b73e e96b cebe e77b a2be bb68 1dbe
00000210: 5036 373e f8d7 97be a436 3d3e b14a fbbd
00000220: 2aae 693e 7cf6 5bbd af18 873e 11db 8a3e
00000230: a23c c2bd 2308 7f3d 18e1 afbe 5143 adbe
00000240: 2968 65be c32e ccbe 10fc db3d d1d2 103e
00000250: 3519 93be 5be6 c13d 612e c1bd b185 ad3c
00000260: 3a5e cb3e f366 e73d 74c8 90be 51eb cabe
00000270: 6641 91bd 0704 ce3e c943 c63e 31db ddbd
00000280: 3564 4b3e 4c35 4c3d 34c3 aa3e 4619 1dbe
00000290: 3ad0 b3bd 28c1 533e af3a bf3d 2535 a23e
000002a0: a99a 373d a848 d03e 5a95 973d 196c 1fbe
000002b0: 19d8 163e 0f4f 12be 609d 263e 6beb ebbd
000002c0: f7e4 56bd 7719 d93e 3ac4 4b3e 0211 933e
000002d0: 94cf a93e d4b0 783e a0c8 6abe b506 b2be
000002e0: 9569 25be 5f30 a5be 0792 4e3e d687 803e
000002f0: dc0e 26be 3669 24be eff1 943e 0f05 54bd
00000300: 79d3 163e 7199 65be a839 a4bd 02e8 d13e
00000310: 4411 c53e 86c9 ccbe a795 84be aa6b 3cbe
00000320: b29a b23e 501d 903e 3dc4 4dbe 54a6 3dbe
00000330: dd1d 8e3e 7a31 293e 1181 8f3d c837 bbbe
00000340: a068 a23c d684 823e 3f3f c13e 50af ad3e
00000350: f8e8 90be 358b 90bd ae4d f4bd 50d9 65be
00000360: 4e10 013e f9f6 753b 1d99 97be 152e 703e
00000370: 703e acbe ab65 45be dc53 bbbe 41e1 c13e
00000380: 5a22 98bd 8fbd ed3d f972 a2bc 6820 84bd
00000390: 4d3e 4d3d aa5b 67be 6cd5 233e 7326 17be
000003a0: af1a 3a3e 5794 503e 7fa6 363e 9805 b43e
000003b0: f7f5 c5be 1797 833e 52ba d53e 09db 813d
000003c0: 3d79 9d3e 157c d1be 4210 7f3e c042 843e
000003d0: d2c5 ecbd d593 593d 61d5 93be dbab 853d
000003e0: 178e 183e 60ba 143d 5de0 863e dad0 463d
000003f0: 9fbb ffbc 509d 9abe 6328 a2be 0015 54be
