workspace/suphx-reward-shaping/weights/numpy/weights_no_logistic_TD_4_layer_1.npy (npy, 4224 bytes, 1 tensors)

array f4 [32, 32]
-0.0069911834 0.26714894 -0.21704695 0.079879396 -0.30241048 0.27722606 0.057595704 0.23200525
-0.2607559 0.15667006 -0.19064559 0.293442 0.1402259 -0.04533571 -0.01277764 -0.009886237
0.023843564 0.25954497 -0.21961291 -0.054204173 0.09668031 -0.15287703 -0.1494747 0.2859748
0.13428162 0.10140351 0.11213612 -0.15572397 -0.148043 -0.1535836 -0.07172692 -0.13960123
0.24421377 0.2796412 -0.27804017 -0.136618 -0.16811866 0.028063504 0.14638896 0.0439414
0.16079722 0.21850191 -0.10611686 -0.20827572 -0.03490438 0.2811182 -0.095092334 0.10284191
-0.11517418 -0.055126026 -0.29239082 0.28098974 -0.21371242 0.11274531 -0.23525086 0.03330523
-0.10250327 -0.16795178 -0.12765165 -0.050448153 0.28256035 -0.06561313 -0.19050921 0.02898309
0.26819435 -0.52490073 -0.2958455 -0.15971477 0.08115807 -0.17904621 -0.0988965 -0.13439876
-0.25557402 -0.10013345 -0.35926613 0.29979008 0.2658016 0.31839028 -0.051712137 -0.088019855
-0.15435676 0.5069618 0.05665134 -0.3970524 0.18399496 -0.22233474 -0.25750133 0.25970787
-0.28552645 0.25345922 0.08546983 -0.16945873 -0.3294022 -0.26678452 0.26107872 0.099321544
0.22991006 -0.19926183 -0.3054893 0.10149798 0.0066950205 -0.18642601 0.24690136 0.20630309
0.038374312 -0.2713074 -0.009962669 -0.10706974 -0.07982114 -0.22755668 0.01846591 0.016373644
-0.24337989 0.07713253 0.06518564 0.10224842 0.18542014 -0.15983084 0.013051538 -0.12352558
-0.2781607 -0.3011087 0.017629106 -0.2839012 0.08606684 -0.12499632 -0.07692258 -0.08925375
0.1302241 0.23529938 -0.19726701 0.18611933 0.026821984 -0.17644918 0.19737704 0.2503256
-0.2049531 -0.2491697 0.241843 0.22561683 0.22217034 -0.043073386 -0.07456145 0.061524004
0.028572569 0.24738654 0.19908021 -0.12301279 -0.05220711 -0.045831352 0.087706655 -0.18574779
0.0699261 0.18806362 -0.0974757 0.0928299 -0.014727248 -0.086658925 -0.00070390763 -0.29089665
-0.27964464 -0.2419566 -0.0941269 -0.10680037 -0.17911108 -0.14317782 0.2591802 0.051491402
-0.27579132 -0.013267546 0.13414416 -0.16549188 -0.26092944 -0.25086617 0.10998392 -0.1313264
-0.1793692 -0.20841661 0.13209365 0.22559376 -0.2594938 -0.23881948 -0.22870913 0.11127552
0.02002783 -0.29670033 0.02433566 0.24141626 0.11026738 -0.25587034 0.27040818 -0.30610213
-0.016419224 0.25733018 0.23313515 0.12385591 0.1026089 0.13337272 0.036619265 0.035507157
0.055211812 -0.15248808 0.2786847 0.16078277 -0.060532376 0.026127229 -0.20189197 0.12549423
-0.07812861 -0.06336808 -0.017069962 -0.1064493 0.06812841 -0.2793867 -0.27234948 0.06453708
-0.0275087 -0.21605544 -0.094738334 0.012146551 -0.098608546 -0.32184753 -0.26108253 0.018879823
0.32996526 -0.027138935 0.26031092 0.009064033 0.09803995 -0.19400144 0.024588937 0.27005008
-0.23860146 -0.29295227 0.20999183 -0.0006360532 -0.028927263 -0.20711529 0.0072979922 0.019965515
0.1055592 0.45694968 0.24589355 -0.09503817 0.17861512 -0.21438606 0.13672692 -0.22624691
0.0011973422 0.30938506 0.1269057 -0.13895686 0.10887885 -0.22352837 0.4518471 0.1383941
00000000: 4c16 e5bb bfc7 883e 8e41 5ebe cf97 a33d
00000010: 8cd5 9abe 93f0 8d3e 79e9 6b3d c992 6d3e
00000020: cc81 85be 1e6e 203e 9938 43be 083e 963e
00000030: 6197 0f3e f0b1 39bd 4e59 51bc e2f9 21bc
00000040: 9453 c33c 14e3 843e 35e2 60be 3205 5ebd
00000050: 5400 c63d cc8b 1cbe e50f 19be 4a6b 923e
00000060: 1f81 093e a5ac cf3d 9fa7 e53d 1b76 1fbe
00000070: 9698 17be 0545 1dbe 90e5 92bd a0f3 0ebe
00000080: 2d13 7a3e 222d 8f3e 485b 8ebe 97e5 0bbe
00000090: 4c27 2cbe 6fe5 e53c fde6 153e e6fb 333d
000000a0: 07a8 243e f7be 5f3e cc53 d9bd 3b46 55be
000000b0: e5f7 0ebd baee 8f3e c5bf c2bd c89e d23d
000000c0: 71e0 ebbd d4cb 61bd 40b4 95be e3dd 8f3e
000000d0: 6ed7 5abe 03e7 e63d 9ae5 70be 116b 083d
000000e0: 3ced d1bd 8dfb 2bbe 1db7 02be b9a2 4ebd
000000f0: c0ab 903e 2d60 86bd d914 43be f26d ed3c
00000100: c550 893e e55f 06bf 1079 97be 458c 23be
00000110: 3436 a63d e457 37be 408a cabd d49f 09be
00000120: 99da 82be c412 cdbd bbf1 b7be 167e 993e
00000130: 2617 883e 0d04 a33e 1bd0 53bd c143 b4bd
00000140: b30f 1ebe 40c8 013f 3c0b 683d 744a cbbe
00000150: 2d69 3c3e b8ab 63be 37d7 83be 6ef8 843e
00000160: 8630 92be 68c5 813e ce0a af3d 9786 2dbe
00000170: 68a7 a8be fb97 88be 1cac 853e 1869 cb3d
00000180: 8b6d 6b3e 4b0b 4cbe 1869 9cbe 2cde cf3d
00000190: e761 db3b 76e6 3ebe b6d3 7c3e 1e41 533e
000001a0: 622e 1d3d cee8 8abe 763a 23bc 6147 dbbd
000001b0: 4479 a3bd 9e04 69be d245 973c 0522 863c
000001c0: 9438 79be a9f7 9d3d 0c80 853d 9f67 d13d
000001d0: c7de 3d3e b2aa 23be 1ed6 553c fbfa fcbd
000001e0: 146b 8ebe eb2a 9abe ea6a 903c 805b 91be
000001f0: d043 b03d 12fe ffbd 9689 9dbd acca b6bd
00000200: 7759 053e 52f2 703e 5d00 4abe 1196 3e3e
00000210: c7b9 db3c 18af 34be 351d 4a3e ad2a 803e
00000220: 3adf 51be 5826 7fbe b1a5 773e 1908 673e
00000230: 9f80 633e b86d 30bd acb3 98bd 9800 7c3d
00000240: 0511 ea3c e652 7d3e afdb 4b3e 21ee fbbd
00000250: 1fd7 55bd a8b9 3bbd 8c9f b33d ab34 3ebe
00000260: 6a35 8f3d c093 403e 57a1 c7bd 9a1d be3d
00000270: 8e4a 71bc 3c7a b1bd 7186 38ba 68f0 94be
00000280: 952d 8fbe 79c3 77be 9bc5 c0bd 27ba dabd
00000290: e568 37be 359d 12be 44b3 843e a6e8 523d
000002a0: 8534 8dbe 1f60 59bc 165d 093e b476 29be
000002b0: 8b98 85be 8871 80be 403f e13d 6e7a 06be
000002c0: 8fac 37be 2a6b 55be 8f43 073e 0d02 673e
000002d0: 5fdc 84be 188d 74be ba32 6abe 6be4 e33d
000002e0: 6711 a43c 1be9 97be 945b c73c d335 773e
000002f0: ddd3 e13d 7001 83be f172 8a3e 6bb9 9cbe
00000300: 9c81 86bc c8c0 833e fbba 6e3e 2ba8 fd3d
00000310: 9d24 d23d dc92 083e 15fe 153d f46f 113d
00000320: c825 623d d625 1cbe c3af 8e3e 3da4 243e
00000330: ccf0 77bd c508 d63c c5bc 4ebe 8f81 003e
00000340: e501 a0bd 20c7 81bd 4ed6 8bbc 1702 dabd
00000350: e886 8b3d c60b 8fbe 6471 8bbe 042c 843d
00000360: ed59 e1bc a33d 5dbe 2c06 c2bd 5402 473c
00000370: 47f3 c9bd 33c9 a4be 9cac 85be dca9 9a3c
00000380: 35f1 a83e 7952 debc 7947 853e 4f81 143c
00000390: 2bc9 c83d 50a8 46be bd6e c93c 0144 8a3e
000003a0: f153 74be d7fd 95be 1908 573e cfbc 26ba
000003b0: def8 ecbc 0816 54be ff23 ef3b b88e a33c
000003c0: 6c2f d83d 4ff5 e93e 85cb 7b3e 5fa3 c2bd
000003d0: e2e6 363e 0588 5bbe 2402 0c3e 45ad 67be
000003e0: 23f0 9c3a b867 9e3e 91f3 013e b54a 0ebe
000003f0: e0fb de3d 9fe4 64be 8158 e73e 2fb7 0d3e
