workspace/suphx-reward-shaping/weights/numpy/weights_no_logistic_TD_2_layer_1.npy (npy, 4224 bytes, 1 tensors)

array f4 [32, 32]
00000000: 4c16 e5bb 68cd 7d3e 13b5 6cbf bbda d33e
00000010: 8cd5 9abe ec1b e03c 2833 e1be 83a1 153e
00000020: 8a40 8dbe 83de 173e 2709 52be 5de5 cf3d
00000030: aff9 023e f0ac 183f 5cc6 0fbf bded 8cbe
00000040: 41e4 dbbc 8d26 593f 08b2 853b 3205 5ebd
00000050: ea1c 053e cc8b 1cbe e50f 19be 0a85 a73e
00000060: 2f99 71be 61d3 613f 9fa7 e53d eac4 21be
00000070: 8d66 e0bd b0ac e5be a3d4 90bd a0f3 0ebe
00000080: 2d13 7a3e 222d 8f3e 485b 8ebe 97e5 0bbe
00000090: 4c27 2cbe 6fe5 e53c fde6 153e e6fb 333d
000000a0: 07a8 243e f7be 5f3e cc53 d9bd 3b46 55be
000000b0: e5f7 0ebd baee 8f3e c5bf c2bd c89e d23d
000000c0: 71e0 ebbd d4cb 61bd 40b4 95be e3dd 8f3e
000000d0: 6ed7 5abe 03e7 e63d 9ae5 70be 116b 083d
000000e0: 3ced d1bd 8dfb 2bbe 1db7 02be b9a2 4ebd
000000f0: c0ab 903e 2d60 86bd d914 43be f26d ed3c
00000100: ae3c 23be 3c47 55be d130 75be f95a 80be
00000110: 3436 a63d 157b 12be 6b30 923c 8d1e 94bc
00000120: de5e 6fbe dd47 17be be5f d3bd ebd1 933e
00000130: 3e34 883e acf4 5b3d dde3 7d3e 545d 4c3e
00000140: ba8f 033c 8377 aa3e c0b9 da3d dcf3 29be
00000150: 8d11 ce3d db0c 4fbe 37d7 83be 0901 4c3e
00000160: bfc9 4abd 1def 7b3d cfb9 453e 7fad 36be
00000170: c08c 9ebe 836d 803d 379e 153e 1869 cb3d
00000180: 8b6d 6b3e 4b0b 4cbe 1869 9cbe 2cde cf3d
00000190: e761 db3b 76e6 3ebe b6d3 7c3e 1e41 533e
000001a0: 622e 1d3d cee8 8abe 763a 23bc 6147 dbbd
000001b0: 4479 a3bd 9e04 69be d245 973c 0522 863c
000001c0: 9438 79be a9f7 9d3d 0c80 853d 9f67 d13d
000001d0: c7de 3d3e b2aa 23be 1ed6 553c fbfa fcbd
000001e0: 146b 8ebe eb2a 9abe ea6a 903c 805b 91be
000001f0: d043 b03d 12fe ffbd 9689 9dbd acca b6bd
00000200: d0fd 163e b3c6 803e 826d f5bd 83ca 1f3e
00000210: c7b9 db3c 8aac 29be f105 353e a005 843e
00000220: 9939 4ebe ec2d 99be 1f8f 733e da13 5a3e
00000230: 13eb 573e c425 27bd a2d5 3cbe 369c b23d
00000240: cf63 9c3d aec3 793e c1ae 5c3e 9fc6 1cbe
00000250: 5234 eebc f9e7 d7bc 8c9f b33d 425e 3fbe
00000260: 23fd 28bb 302f 433e 9bb2 1abe b14b a33d
00000270: 5d73 b5bb 0b6c 4fbd 77fc 9cbb 68f0 94be
00000280: 952d 8fbe d34e 7dbe edae b5bd 27ba dabd
00000290: e568 37be fd26 18be 9978 873e a6e8 523d
000002a0: 6cfa 8fbe c20e 99bc 5fd2 033e b476 29be
000002b0: 8b98 85be 0b37 83be 2e49 d63d 6cf1 00be
000002c0: 8fac 37be 43e0 4fbe 8f43 073e 0d02 673e
000002d0: f218 82be 188d 74be ba32 6abe 90cd d83d
000002e0: 6711 a43c 1928 95be 945b c73c a8aa 713e
000002f0: d3bb d63d d23d 80be f172 8a3e 6bb9 9cbe
00000300: d7d3 d73d 2ab0 a43d 68d2 ef3e 3b78 703d
00000310: 9d24 d23d df23 513e b842 c3be 422a 5c3e
00000320: 71f6 f73d c5de 54be c4fb 533e 6338 383d
00000330: 026d 77bd b1e6 a9be df1e 5dbe f1ba 0c3f
00000340: afdd eb3e ff1b 24be 6c0f 173f 3352 11be
00000350: 6003 1b3f 7cee 84be 6471 8bbe 0cc0 503e
00000360: 6275 b4bd 1f7c 92be 0978 5cbe 29d5 6e3b
00000370: d0ef 3e3e ce9d 3b3e 78d0 36bf dca9 9a3c
00000380: 2213 bc3d d991 d6bd 938e 883e 4f81 143c
00000390: 2bc9 c83d 121a 0bbc 1a10 243d c397 713e
000003a0: b6cc 523d d7fd 95be 6df7 933e cfbc 26ba
000003b0: b37a 66bc b819 40bd b4d4 3e3d cd0c 10be
000003c0: d2f5 f5bc b014 963e 7d62 933e d07c 1e3d
000003d0: 1954 2c3e 64f5 44be 2402 0c3e d3c2 4bbe
000003e0: 42fd 07be 5eac 1a3e fd57 8e3e b54a 0ebe
000003f0: d648 983e db2c 74be 6431 8c3e 2fb7 0d3e
-0.0069911834 0.24785388 -0.924638 0.41377816 -0.30241048 0.027357064 -0.43984342 0.14612393
-0.27588302 0.14830975 -0.20511304 0.101511694 0.12790559 0.5963888 -0.5616205 -0.2752513
-0.026842238 0.8482445 0.004080061 -0.054204173 0.12999311 -0.15287703 -0.1494747 0.32718688
-0.23593591 0.88213164 0.11213612 -0.15797773 -0.1095706 -0.44858313 -0.07071807 -0.13960123
0.24421377 0.2796412 -0.27804017 -0.136618 -0.16811866 0.028063504 0.14638896 0.0439414
0.16079722 0.21850191 -0.10611686 -0.20827572 -0.03490438 0.2811182 -0.095092334 0.10284191
-0.11517418 -0.055126026 -0.29239082 0.28098974 -0.21371242 0.11274531 -0.23525086 0.03330523
-0.10250327 -0.16795178 -0.12765165 -0.050448153 0.28256035 -0.06561313 -0.19050921 0.02898309
-0.15941116 -0.20827955 -0.23944403 -0.25069407 0.08115807 -0.14304765 0.017845353 -0.018080974
-0.23376033 -0.14773507 -0.10320996 0.28871092 0.26602358 0.053700134 0.24793954 0.19957477
0.008029873 0.33294305 0.1067996 -0.16596931 0.10061941 -0.20219748 -0.25750133 0.1992227
-0.049508806 0.061507333 0.19309162 -0.17839621 -0.3096676 0.06270888 0.14611135 0.099321544
0.22991006 -0.19926183 -0.3054893 0.10149798 0.0066950205 -0.18642601 0.24690136 0.20630309
0.038374312 -0.2713074 -0.009962669 -0.10706974 -0.07982114 -0.22755668 0.01846591 0.016373644
-0.24337989 0.07713253 0.06518564 0.10224842 0.18542014 -0.15983084 0.013051538 -0.12352558
-0.2781607 -0.3011087 0.017629106 -0.2839012 0.08606684 -0.12499632 -0.07692258 -0.08925375
0.1474526 0.25151595 -0.119837776 0.15604596 0.026821984 -0.16569725 0.17678048 0.25785542
-0.2013916 -0.29917848 0.23785065 0.21296635 0.21085767 -0.0408075 -0.1844087 0.08721201
0.076362245 0.24391052 0.21551038 -0.15310143 -0.029077683 -0.02635573 0.087706655 -0.186883
-0.0025785647 0.1906097 -0.15107195 0.07973421 -0.005537434 -0.050640147 -0.0047908383 -0.29089665
-0.27964464 -0.247371 -0.08871255 -0.10680037 -0.17911108 -0.14858623 0.26459196 0.051491402
-0.28120744 -0.018683795 0.12873219 -0.16549188 -0.26092944 -0.25627932 0.10463177 -0.12592095
-0.1793692 -0.20300393 0.13209365 0.22559376 -0.25409657 -0.23881948 -0.22870913 0.10586083
0.02002783 -0.29132155 0.02433566 0.23600256 0.104850434 -0.25047165 0.27040818 -0.30610213
0.10538452 0.08041413 0.46840215 0.05870841 0.1026089 0.2042384 -0.3813684 0.21500495
0.12107552 -0.20788105 0.2070151 0.04497565 -0.060406692 -0.33183816 -0.21593808 0.5497275
0.4606757 -0.16026305 0.59007907 -0.14191513 0.60552025 -0.259632 -0.27234948 0.2038576
-0.088114515 -0.28610322 -0.21530165 0.0036442971 0.18646169 0.18321916 -0.7141185 0.018879823
0.09183337 -0.10477037 0.26671275 0.009064033 0.09803995 -0.008490102 0.04005442 0.23593049
0.05146476 -0.29295227 0.28899708 -0.0006360532 -0.01406734 -0.046899527 0.04658957 -0.14067383
-0.030024443 0.29312658 0.28786078 0.03869325 0.16828956 -0.19234234 0.13672692 -0.19898538
-0.13280204 0.15104815 0.27801505 -0.13895686 0.2974307 -0.23845236 0.27381432 0.1383941
