workspace/suphx-reward-shaping/weights/numpy/weights_no_logistic_TD_0_layer_1.npy (npy, 4224 bytes, 1 tensors)

array f4 [32, 32]
0	0xbbe5164c	-0.0069911834
1	0x3e88c7bf	0.26714894
2	0xbe5e418e	-0.21704695
3	0x3da397cf	0.079879396
4	0xbe9ad58c	-0.30241048
5	0x3e8df093	0.27722606
6	0x3d6be979	0.057595704
7	0x3e6d92c9	0.23200525
8	0xbe8581cc	-0.2607559
9	0x3e206e1e	0.15667006
10	0xbe433899	-0.19064559
11	0x3e963e08	0.293442
12	0x3e0f9761	0.1402259
13	0xbd39b1f0	-0.04533571
14	0xbc51594e	-0.01277764
15	0xbc21f9e2	-0.009886237
16	0x3cc35394	0.023843564
17	0x3e84e314	0.25954497
18	0xbe60e235	-0.21961291
19	0xbd5e0532	-0.054204173
20	0x3dc60054	0.09668031
21	0xbe1c8bcc	-0.15287703
22	0xbe190fe5	-0.1494747
23	0x3e926b4a	0.2859748
24	0x3e09811f	0.13428162
25	0x3dcfaca5	0.10140351
26	0x3de5a79f	0.11213612
27	0xbe1f761b	-0.15572397
28	0xbe179896	-0.148043
29	0xbe1d4505	-0.1535836
30	0xbd92e590	-0.07172692
31	0xbe0ef3a0	-0.13960123
32	0x3e7a132d	0.24421377
33	0x3e8f2d22	0.2796412
34	0xbe8e5b48	-0.27804017
35	0xbe0be597	-0.136618
36	0xbe2c274c	-0.16811866
37	0x3ce5e56f	0.028063504
38	0x3e15e6fd	0.14638896
39	0x3d33fbe6	0.0439414
40	0x3e24a807	0.16079722
41	0x3e5fbef7	0.21850191
42	0xbdd953cc	-0.10611686
43	0xbe55463b	-0.20827572
44	0xbd0ef7e5	-0.03490438
45	0x3e8feeba	0.2811182
46	0xbdc2bfc5	-0.095092334
47	0x3dd29ec8	0.10284191
48	0xbdebe071	-0.11517418
49	0xbd61cbd4	-0.055126026
50	0xbe95b440	-0.29239082
51	0x3e8fdde3	0.28098974
52	0xbe5ad76e	-0.21371242
53	0x3de6e703	0.11274531
54	0xbe70e59a	-0.23525086
55	0x3d086b11	0.03330523
56	0xbdd1ed3c	-0.10250327
57	0xbe2bfb8d	-0.16795178
58	0xbe02b71d	-0.12765165
59	0xbd4ea2b9	-0.050448153
60	0x3e90abc0	0.28256035
61	0xbd86602d	-0.06561313
62	0xbe4314d9	-0.19050921
63	0x3ced6df2	0.02898309
64	0xbe398f9a	-0.18121186
65	0xbe642917	-0.222813
66	0xbec8bf64	-0.3920852
67	0xbe39831a	-0.18116418
68	0x3da63634	0.08115807
69	0xbe3dab28	-0.18522322
70	0x3ddc2bc1	0.10750533
71	0xbc97d53d	-0.018534297
72	0xbe6b32e1	-0.22968628
73	0xbdcd12c4	-0.10013345
74	0xbdb964af	-0.09052407
75	0x3e997e16	0.29979008
76	0x3e8fa21f	0.28053376
77	0x3d665086	0.056229137
78	0x3e8e6cee	0.27817482
79	0x3e102821	0.14077808
80	0xbd0e3b79	-0.034724686
81	0x3eaf3df3	0.3422695
82	0x3d39a16a	0.045319952
83	0xbe5bffa2	-0.21484235
84	0x3d85c42e	0.06531559
85	0xbe4f0cdb	-0.20219748
86	0xbe83d737	-0.25750133
87	0x3e5edf42	0.21764854
88	0xbca63872	-0.020290587
89	0x3c90ab1f	0.017659722
90	0x3e2e1a09	0.17002119
91	0xbe2d8697	-0.16945873
92	0xbea633ae	-0.32461303
93	0x3c568ae1	0.013094635
94	0x3e2b2e28	0.16716826
95	0x3dcb6918	0.099321544
96	0x3e6b6d8b	0.22991006
97	0xbe4c0b4b	-0.19926183
98	0xbe9c6918	-0.3054893
99	0x3dcfde2c	0.10149798
100	0x3bdb61e7	0.0066950205
101	0xbe3ee676	-0.18642601
102	0x3e7cd3b6	0.24690136
103	0x3e53411e	0.20630309
104	0x3d1d2e62	0.038374312
105	0xbe8ae8ce	-0.2713074
106	0xbc233a76	-0.009962669
107	0xbddb4761	-0.10706974
108	0xbda37944	-0.07982114
109	0xbe69049e	-0.22755668
110	0x3c9745d2	0.01846591
111	0x3c862205	0.016373644
112	0xbe793894	-0.24337989
113	0x3d9df7a9	0.07713253
114	0x3d85800c	0.06518564
115	0x3dd1679f	0.10224842
116	0x3e3ddec7	0.18542014
117	0xbe23aab2	-0.15983084
118	0x3c55d61e	0.013051538
119	0xbdfcfafb	-0.12352558
120	0xbe8e6b14	-0.2781607
121	0xbe9a2aeb	-0.3011087
122	0x3c906aea	0.017629106
123	0xbe915b80	-0.2839012
124	0x3db043d0	0.08606684
125	0xbdfffe12	-0.12499632
126	0xbd9d8996	-0.07692258
127	0xbdb6caac	-0.08925375
128	0x3e020b78	0.12699687
129	0x3e7a1d9b	0.24425356
130	0xbe6e98d4	-0.23300487
131	0x3e3e9611	0.18611933
132	0x3cdbb9c7	0.026821984
133	0xbe23a7b8	-0.15981948
134	0x3e514e2d	0.20439978
135	0x3e74c3aa	0.23902765
136	0xbe4a23d2	-0.19740227
137	0xbe7f2658	-0.2491697
138	0x3db6bceb	0.08922752
139	0x3e670819	0.22561683
140	0x3e674a60	0.22586966
141	0xbc9b5ccc	-0.018965147
142	0xbe1f5f0d	-0.15563603
143	0x3c697db6	0.014251163
144	0x3d8397db	0.064254485
145	0x3e6ba262	0.23011163
146	0x3defecaf	0.11715066
147	0xbd9e839a	-0.07739945
148	0xbd466227	-0.04843345
149	0xbcd7e7f9	-0.02635573
150	0x3db39f8c	0.087706655
151	0xbe4c1fbb	-0.19933979
152	0x3cb6cc5f	0.022314249
153	0x3e2e492e	0.17020103
154	0xbe1ab29b	-0.15107195
155	0x3dbe1d9a	0.0928299
156	0xbc68bfd6	-0.0142058935
157	0xbdb2faab	-0.08739217
158	0xbc8b1bec	-0.016981088
159	0xbe94f068	-0.29089665
160	0xbe8f2d95	-0.27964464
161	0xbe77c379	-0.2419566
162	0xbdc0c59b	-0.0941269
163	0xbddaba27	-0.10680037
164	0xbe3768e5	-0.17911108
165	0xbe129d35	-0.14317782
166	0x3e84b344	0.2591802
167	0x3d52e8a6	0.051491402
168	0xbe8d3485	-0.27579132
169	0xbc59601f	-0.013267546
170	0x3e095d16	0.13414416
171	0xbe2976b4	-0.16549188
172	0xbe85988b	-0.26092944
173	0xbe807188	-0.25086617
174	0x3de13f40	0.10998392
175	0xbe067a6e	-0.1313264
176	0xbe37ac8f	-0.1793692
177	0xbe556b2a	-0.20841661
178	0x3e07438f	0.13209365
179	0x3e67020d	0.22559376
180	0xbe84dc5f	-0.2594938
181	0xbe748d18	-0.23881948
182	0xbe6a32ba	-0.22870913
183	0x3de3e46b	0.11127552
184	0x3ca41167	0.02002783
185	0xbe97e91b	-0.29670033
186	0x3cc75b94	0.02433566
187	0x3e7735d3	0.24141626
188	0x3de1d3dd	0.11026738
189	0xbe830170	-0.25587034
190	0x3e8a72f1	0.27040818
191	0xbe9cb96b	-0.30610213
192	0x3dd7d3d7	0.10538452
193	0x3e1f5ab9	0.15561952
194	0x3e9c8058	0.3056667
195	0x3dfda82b	0.12385591
196	0x3dd2249d	0.1026089
197	0x3e2adae5	0.16685064
198	0xbd5368ca	-0.051613607
199	0x3da59019	0.08084125
200	0x3e5ce88f	0.21573089
201	0xbe1c25d6	-0.15248808
202	0x3e90f5c0	0.28312492
203	0x3e24a43d	0.16078277
204	0xbd3b0609	-0.045660052
205	0xbda58f68	-0.08083993
206	0xbe28d364	-0.16486889
207	0x3e676808	0.22598279
208	0x3c8a84a7	0.016908957
209	0xbdb19a3e	-0.086719975
210	0x3ce30338	0.027711496
211	0xbe115233	-0.14191513
212	0x3e568a98	0.20951307
213	0xbe84ee7c	-0.259632
214	0xbe8b7164	-0.27234948
215	0x3c70bb05	0.014693026
216	0xbcb0c392	-0.02157763
217	0xbe74f353	-0.23920946
218	0xbe5c7809	-0.21530165
219	0x3c470254	0.012146551
220	0xbd012574	-0.03152986
221	0xbe5bc466	-0.21461639
222	0xbe784705	-0.24245842
223	0x3c9aa9dc	0.018879823
224	0x3dc2b1be	0.09506558
225	0xbdfc1e68	-0.12310487
226	0x3e7f5cd2	0.24937752
227	0xbc1b4aec	-0.009478312
228	0x3dc8c92b	0.09803995
229	0x3eb7f168	0.35926366
230	0xbf7d2a05	-0.9889224
231	0x3dc97a76	0.09837811
232	0xbea07552	-0.31339508
233	0xbe95fdd7	-0.29295227
234	0x3e4b6300	0.19861984
235	0xba26bccf	-0.0006360532
236	0xbca46cce	-0.020071413
237	0x3e34fed9	0.17675342
238	0xbe4088ca	-0.18802181
239	0xbeb3066e	-0.34965843
240	0xbd504a4e	-0.050852112
241	0x3f1044a2	0.56354725
242	0x3f6d66c7	0.9273495
243	0xbd927062	-0.071503416
244	0x3f415c48	0.75531435
245	0xbe44f564	-0.19234234
246	0x3e0c0224	0.13672692
247	0x3de519cc	0.11186561
248	0xbf69a01d	-0.9125994
249	0x3f29812b	0.6621272
250	0x3e827b25	0.25484577
251	0xbe0e4ab5	-0.13895686
252	0xbec3349d	-0.38126078
253	0xbe679c14	-0.22618133
254	0x3e60747c	0.21919435
255	0x3e0db72f	0.1383941
