workspace/suphx-reward-shaping/weights/numpy/weights_no_logistic_TD_3_layer_2.npy (npy, 640 bytes, 1 tensors)

array f4 [32, 4]
00000000: a716 cf3e a1d3 5abe 6f86 d03e 50bc 063e
00000010: 666c 80be 7b41 95bd 5269 a6bd 4681 79be
00000020: 1ab5 d03e 6087 093f 8d4a c43e ea70 e3be
00000030: 9fde e13e 1707 90ba b979 0c3e 66fc ee3d
00000040: f7cc c53e d9a2 a1be f9b4 5ebe eb2e ef3d
00000050: e638 863e e724 4d3e cef5 a2be 5737 b1bd
00000060: bde4 1ebe f5a3 5f3e a409 1abe f632 a23e
00000070: c4ea 5ebe b3a4 c83d dbfb 9a3e 9df8 93be
00000080: 6977 60bd e7ed 30be a383 d33d 618f a3be
00000090: 82e7 a23d e3ab bfbe e364 313d 79a0 b2be
000000a0: 6c3b ac3b 3a38 9c3e f8e1 95be a181 78be
000000b0: ba1b 22bd 41bf 12be f12a a6be 9e54 bcbc
000000c0: dbab 65be 2ed1 4cbe 25a7 803e 6a5f 423d
000000d0: 5918 553e d741 70be aead cdbe 6c38 8c3d
000000e0: f1db 58be 961a 683e 6d00 5ebe df4b 9c3d
000000f0: e616 a2bd 7633 803e c568 4a3e 92e3 9c3a
00000100: 9630 e23c a9a2 1fbe f329 6e3e a35a 37be
00000110: a9ef 043e bd04 88be e22b 853e e2cd a33e
00000120: b095 963e 2224 a63e 183d bd3e 9f2b 9fbd
00000130: a4d4 5b3e dde0 2c3f c259 1dbf 5874 7cbe
00000140: d60d 543e 232e 0a3e c5b6 7c3d 7d39 663c
00000150: fb17 cabe 928a a6be 1bc3 cdbe 5a84 a33e
00000160: 814c 61be eb21 183e e395 a1be 951c 353e
00000170: d761 1dbe 5fa8 5dbe ede9 9b3d 21c5 5bbe
00000180: 15c2 73be 1e6e b43e 1408 2c3e deb1 b33d
00000190: 2c2c 783e ae00 bcbe 89c2 a03d 8efc 193e
000001a0: 95f5 783e 93fc 14be 4153 a6be d409 103e
000001b0: f861 483e f359 43be b800 af3e 8cdf c2be
000001c0: 3785 85bd e302 87be 89c1 393d da2c 04bf
000001d0: ecbb 21bd e026 b73e a28c 303e 08a9 b0bd
000001e0: 00c3 09be 5ad7 97be bea5 bb3d 2a22 8f3c
000001f0: 3a68 af3e afec 51be 8120 c1ba a213 17be
0.4044697 -0.21369793 0.40727565 0.13157773 -0.250827 -0.0728788 -0.08125557 -0.2436572
0.4076317 0.5372219 0.38338128 -0.44422084 0.4411516 -0.0010988441 0.13718309 0.11669235
0.38632938 -0.31569555 -0.21748723 0.11678871 0.26215285 0.20033608 -0.3182816 -0.08653133
-0.15516944 0.21839888 -0.1504274 0.31679505 -0.21769243 0.09797039 0.30270275 -0.28900614
-0.05480138 -0.17278253 0.10327842 -0.31945327 0.07954313 -0.37435827 0.043309104 -0.34888056
0.005256107 0.30511647 -0.29273963 -0.242682 -0.039577223 -0.1433077 -0.32454637 -0.022989567
-0.22428839 -0.2000167 0.2512752 0.047454275 0.20810069 -0.23462616 -0.4017157 0.06846699
-0.21177651 0.22666392 -0.2167985 0.07631659 -0.07914524 0.25039262 0.19766529 0.0011969677
0.027611058 -0.15589394 0.2325819 -0.17905669 0.12982048 -0.26566115 0.26010042 0.31993014
0.29411077 0.32449442 0.36960673 -0.07771992 0.21467835 0.67530614 -0.61465085 -0.24653757
0.20708403 0.13494162 0.06169774 0.014051792 -0.3947142 -0.32527596 -0.40187916 0.31936914
-0.2200184 0.14856689 -0.31559667 0.17686684 -0.15369354 -0.2164626 0.07612977 -0.21461917
-0.23804505 0.35240263 0.16799957 0.0877416 0.242356 -0.3671927 0.07849605 0.15037748
0.24312432 -0.14549474 -0.32485393 0.14066249 0.19568622 -0.19077282 0.34180236 -0.38061178
-0.06519549 -0.2636939 0.045350585 -0.5163094 -0.039485857 0.35771847 0.17241147 -0.0862599
-0.13453293 -0.29656488 0.09162472 0.017472345 0.34259206 -0.20500444 -0.0014734418 -0.14753583
