workspace/suphx-reward-shaping/weights/numpy/weights_no_logistic_TD_4_layer_0.npy (npy, 2560 bytes, 1 tensors)

array f4 [19, 32]
-0.10716628 0.1886574 0.19344155 0.045026235 0.07951649 -0.2724742 0.3764861 0.15292934
-0.09731817 0.19466847 -0.22549924 -0.32699782 -0.44517666 0.15982382 0.099607825 -0.12400225
-0.24570967 0.11808448 0.2004688 -0.49457848 0.33108833 0.3871433 -0.10879494 0.13371724
0.18057556 -0.95136493 -0.42415568 0.11221209 0.24897136 0.39558628 0.08538397 0.24264276
0.17051008 -0.3105371 -0.81819737 0.05727876 0.24559022 0.24791071 0.2580485 -0.46813074
0.24197616 -0.16057645 0.36883238 0.09409544 0.0039293924 0.24274728 -0.2411658 0.47482744
-0.10818493 0.19498913 -0.3345994 0.50445753 -0.18584488 0.45384696 -0.4430635 -0.3085463
0.14161795 0.30401942 -0.28479382 0.41417745 0.39691728 0.065982096 -0.19466494 -0.12958953
0.16793491 -0.018555325 0.3996868 -0.01884656 0.07459077 0.22187246 0.1896678 0.37925133
-0.110557556 0.35994843 0.02556903 -0.014424251 0.27685183 -0.8505609 -0.29372597 0.4102369
-0.26343846 -0.29073387 0.1962253 -0.2845012 -0.10016982 0.43739352 -0.33036956 0.010905752
-0.49940795 0.32943642 0.0153182885 -0.369606 0.074791074 -0.396174 -0.31650817 -0.23045652
-0.1554536 -0.13305493 0.39582133 -0.14123945 0.41529712 0.3951517 -0.09598577 0.11831389
-0.26179263 0.33594638 -0.4187616 0.1463078 0.301968 0.27142373 0.055935033 0.18082653
-0.25970092 0.14815663 -0.38457108 -0.09238223 -0.13565323 -0.8984027 -0.26398513 0.38480794
-0.13063729 0.18054637 0.417002 0.016426161 0.40687138 0.02531449 0.41276005 0.04780541
0.3585402 -0.40316704 -0.28201222 -0.15371983 0.13419756 -0.2965696 0.16237494 -0.057799283
0.22820345 -0.063537 0.20903578 0.3208439 -0.1419459 0.09876622 -0.33671778 -0.32327285
-0.22403015 -0.362961 0.06499733 0.16834667 -0.2873017 0.14151868 -0.1009435 0.019784974
0.35082006 0.13196166 -0.28277934 -0.3990378 -0.024580775 0.41288513 0.33737126 -0.10832823
0.19862445 0.049855515 0.33352053 -0.15341672 -0.087799504 0.20679152 0.09337365 0.3168117
0.04482523 0.40680432 0.074015334 -0.1556858 0.14730872 -0.14287971 0.16270971 -0.11519512
-0.05246445 0.4240224 0.19899073 0.28723913 0.33166182 0.24286205 -0.22928095 -0.34770742
-0.16153558 -0.32263467 0.20172893 0.25103635 -0.16216606 -0.1605576 0.2909083 -0.051762637
0.15177895 -0.22421815 -0.019691152 0.4099732 0.42209402 -0.39457294 -0.30635875 -0.18400446
0.32042783 0.30777043 -0.16998233 -0.26221746 0.30159873 0.21203737 0.07007039 -0.33887437
-0.0046381857 0.24904343 0.4192305 0.29053605 -0.2830274 -0.07057802 -0.09446426 -0.17204751
0.12603876 0.003753124 -0.29609004 0.22639936 -0.3782933 -0.19625275 -0.3187522 0.37867168
-0.07428427 0.11608421 -0.019830214 -0.064514935 0.050108243 -0.22593561 0.15999383 -0.14760761
0.18174241 0.20369087 0.1783695 0.35160518 -0.3866422 0.2570121 0.41743714 0.06340606
0.3075656 -0.4091498 0.24908546 0.25832176 -0.11561169 0.0531195 -0.28873733 0.065269195
0.14897953 0.036310554 0.2634305 0.04853902 -0.031217394 -0.30198145 -0.31671438 -0.20711136
00000000: ff79 dbbd 682f 413e 8b15 463e 6e6d 383d
00000010: 8bd9 a23d bd81 8bbe c9c2 c03e 8299 1c3e
00000020: c04e c7bd 2c57 473e 46e9 66be 426c a7be
00000030: 32ee e3be dba8 233e 30ff cb3d e4f4 fdbd
00000040: 519b 7bbe 47d6 f13d b147 4d3e 6439 fdbe
00000050: 6984 a93e a637 c63e e2cf debd 2ced 083e
00000060: cde8 383e a78c 73bf ef2a d9be 74cf e53d
00000070: 59f2 7e3e 498a ca3e cadd ae3d 5877 783e
00000080: 329a 2e3e b8fe 9ebe 6275 51bf 229d 6a3d
00000090: 017c 7b3e 4edc 7d3e ef1e 843e d5ae efbe
000000a0: 99c8 773e 276e 24be 99d7 bc3e 1cb5 c03d
000000b0: 22c2 803b be92 783e 2bf4 76be 951c f33e
000000c0: 1090 ddbd 3bab 473e 9d50 abbe 2124 013f
000000d0: 1f4e 3ebe a15e e83e 38d9 e2be c8f9 9dbe
000000e0: 4c04 113e 6fa8 9b3e 7fd0 91be 110f d43e
000000f0: be38 cb3e 9f21 873d 3f56 47be 1eb3 04be
00000100: 21f7 2b3e 5601 98bc c0a3 cc3e 1a64 9abc
00000110: 0cc3 983d 8932 633e 4738 423e 3b2d c23e
00000120: 006c e2bd 294b b83e 2476 d13c b253 6cbc
00000130: 86bf 8d3e 5cbe 59bf 4063 96be 920a d23e
00000140: 68e1 86be 12db 94be 49ef 483e 24aa 91be
00000150: d625 cdbd 0bf2 df3e 3326 a9be 0aae 323c
00000160: 66b2 ffbe e4ab a83e 8ff9 7a3c ff3c bdbe
00000170: 102c 993d 52d7 cabe 5c0d a2be cbfc 6bbe
00000180: 3b2f 1fbe 8d3f 08be 18a9 ca3e 13a1 10be
00000190: d3a1 d43e 5351 ca3e 3094 c4bd 8e4e f23d
000001a0: af09 86be 2a01 ac3e ec67 d6be b6d1 153e
000001b0: 8d9b 9a3e 0df8 8a3e 221c 653d 972a 393e
000001c0: 85f7 84be 5fb6 173e 80e6 c4be e532 bdbd
000001d0: aee8 0abe b8fd 65bf 0f29 87be 8c05 c53e
000001e0: c8c5 05be 26e1 383e 4981 d53e 2890 863c
000001f0: 7251 d03e 5560 cf3c 4955 d33e 9bcf 433d
00000200: 9592 b73e e96b cebe e863 90be bb68 1dbe
00000210: 166b 093e f8d7 97be 9e45 263e f1be 6cbd
00000220: 2aae 693e b01f 82bd 7a0d 563e a745 a43e
00000230: 445a 11be f245 ca3d 4666 acbe 0584 a5be
00000240: 2968 65be 06d6 b9be 521d 853d 1263 2c3e
00000250: 3519 93be 46ea 103e 77bb cebd 1914 a23c
00000260: b09e b33e f520 073e 74c8 90be af4e ccbe
00000270: 9f5d c9bc ae65 d33e edbb ac3e 31db ddbd
00000280: 3564 4b3e 4c35 4c3d 34c3 aa3e 4619 1dbe
00000290: 3ad0 b3bd 28c1 533e af3a bf3d 2535 a23e
000002a0: a99a 373d a848 d03e 5a95 973d 196c 1fbe
000002b0: 19d8 163e 0f4f 12be 609d 263e 6beb ebbd
000002c0: f7e4 56bd 7719 d93e 3ac4 4b3e 0211 933e
000002d0: 94cf a93e d4b0 783e a0c8 6abe b506 b2be
000002e0: 9569 25be 5f30 a5be 0792 4e3e d687 803e
000002f0: dc0e 26be 3669 24be eff1 943e 0f05 54bd
00000300: f16b 1b3e 7199 65be 574f a1bc 02e8 d13e
00000310: b51c d83e 7705 cabe 0edb 9cbe aa6b 3cbe
00000320: 1e0f a43e 1694 9d3e d90f 2ebe 5e41 86be
00000330: 266b 9a3e 5320 593e 1181 8f3d f180 adbe
00000340: ecfb 97bb 3e05 7f3e 61a5 d63e 24c1 943e
00000350: f8e8 90be 358b 90bd 7a76 c1bd 392d 30be
00000360: 4e10 013e f9f6 753b 1d99 97be 3cd5 673e
00000370: a9af c1be 7bf6 48be 7d33 a3be 41e1 c13e
00000380: 5a22 98bd 8fbd ed3d f972 a2bc 6820 84bd
00000390: 4d3e 4d3d aa5b 67be 6cd5 233e 7326 17be
000003a0: af1a 3a3e 5794 503e 7fa6 363e 9805 b43e
000003b0: f7f5 c5be 1797 833e 52ba d53e 09db 813d
000003c0: 3d79 9d3e 157c d1be 4210 7f3e c042 843e
000003d0: d2c5 ecbd d593 593d 61d5 93be dbab 853d
000003e0: 178e 183e 60ba 143d 5de0 863e dad0 463d
000003f0: 9fbb ffbc 509d 9abe 6328 a2be 0015 54be
