workspace/suphx-reward-shaping/weights/numpy/weights_no_logistic_TD_3_layer_1.npy (npy, 4224 bytes, 1 tensors)

array f4 [32, 32]
-0.0069911834 0.2571893 0.14250533 0.076942325 -0.30241048 0.28203562 0.039647263 0.25873065
-0.2792943 0.13784719 -0.21726303 0.28132734 0.13569942 -0.07365446 -0.031658348 0.16069892
0.008350561 0.24130365 -0.1798546 -0.00095882383 0.11582564 -0.15287703 -0.1494747 0.2541222
0.37289253 -0.055065032 0.11213612 -0.17587514 -0.13867381 -0.06603112 -0.10491633 -0.13960123
0.24421377 0.27338594 -0.16263776 -0.065644555 -0.16811866 0.04917569 0.096539356 0.027829656
0.1734287 0.21850191 -0.10611686 -0.20827572 -0.050477553 0.27745044 -0.113851875 0.07299424
-0.12458181 -0.03019701 -0.2713092 0.26657984 -0.19262451 0.11274531 -0.23525086 0.019411845
-0.13490011 -0.12933145 -0.12765165 -0.050448153 0.27023348 -0.05435337 -0.20706587 0.02898309
-0.15941116 -0.1921379 -0.2134744 -0.10435888 0.08115807 -0.13772845 0.09367627 -0.013200988
-0.2188088 -0.117490746 -0.12334121 0.28768018 0.27459544 0.065933906 0.26507056 0.11872388
-0.015382923 0.31922442 0.110954486 -0.21402954 0.07173849 -0.20219748 -0.25750133 0.20921366
-0.026742533 0.01353206 0.19309162 -0.18411219 -0.33147228 0.009938821 0.15327711 0.099321544
0.22991006 -0.19926183 -0.3054893 0.10149798 0.0066950205 -0.18642601 0.24690136 0.20630309
0.038374312 -0.2713074 -0.009962669 -0.10706974 -0.07982114 -0.22755668 0.01846591 0.016373644
-0.24337989 0.07713253 0.06518564 0.10224842 0.18542014 -0.15983084 0.013051538 -0.12352558
-0.2781607 -0.3011087 0.017629106 -0.2839012 0.08606684 -0.12499632 -0.07692258 -0.08925375
0.1474526 0.26801315 -0.1665488 0.2298121 0.026821984 -0.16535436 0.19377182 0.25992095
-0.18275791 -0.26894477 0.2226841 0.21372236 0.21093027 -0.009737025 -0.13554297 0.025183463
0.07462795 0.25996834 0.22205456 -0.09558276 -0.05057592 -0.02635573 0.087706655 -0.19655171
0.0352091 0.18689117 -0.15107195 0.081753805 -0.031051101 -0.09761138 -0.010690582 -0.29089665
-0.27964464 -0.30581763 -0.18277417 -0.46560207 -0.17911108 -0.6817908 0.79349595 0.1943203
-0.3201962 -0.065352194 0.07285215 -0.17452896 0.18271498 -0.5441109 0.38950175 0.3386449
-0.19054303 0.03289808 -0.045087952 -0.09760054 -0.57665855 -0.23881948 -0.22870913 -0.18188271
0.5340276 -0.56689423 0.02433566 0.20510569 -0.13938107 -0.044562098 0.29588205 -0.30610213
0.10538452 0.082818314 0.36875716 0.13943073 0.1026089 0.18592888 0.06423833 0.09297037
0.15687265 -0.17987695 0.22122395 0.1556576 -0.011392276 -0.08604902 -0.09449293 0.39615306
0.0034442034 -0.06771704 0.107480034 0.037529103 0.23776205 -0.259632 -0.27234948 -0.07329546
0.042952016 -0.30285132 -0.21530165 -0.019439485 0.071835145 -0.04747315 -0.3527691 0.018879823
0.09183337 -0.12479607 0.30876538 0.0946038 0.09803995 -0.17433502 -0.2803508 0.27351087
0.0861889 -0.30594167 0.231998 -0.012571538 0.082581736 -0.20205604 -0.06273181 -0.09017452
-0.04363641 0.4659828 0.35049266 -0.20148377 0.16050224 -0.19234234 0.13672692 -0.14508244
-0.16211031 0.4064478 0.27801505 -0.161942 0.31691805 -0.26957932 0.27324307 0.1383941
00000000: 4c16 e5bb 51ae 833e ebec 113e f093 9d3d
00000010: 8cd5 9abe f966 903e 2b65 223d 5878 843e
00000020: aaff 8ebe d027 0d3e 337a 5ebe 230a 903e
00000030: caf4 0a3e 26d8 96bd 2fac 01bd 428e 243e
00000040: cbd0 083c 4e18 773e ce2b 38be 9459 7bba
00000050: fe35 ed3d cc8b 1cbe e50f 19be 4e1c 823e
00000060: c5eb be3e df8b 61bd 9fa7 e53d 9d18 34be
00000070: 8200 0ebe 533b 87bd 5fde d6bd a0f3 0ebe
00000080: 2d13 7a3e 3ef9 8b3e 838a 26be a770 86bd
00000090: 4c27 2cbe 736c 493d 6db6 c53d 05fb e33c
000000a0: 4b97 313e f7be 5f3e cc53 d9bd 3b46 55be
000000b0: 8dc1 4ebd fc0d 8e3e 2c2b e9bd 017e 953d
000000c0: bf24 ffbd b85f f7bc 0ae9 8abe 277d 883e
000000d0: 5c3f 45be 03e7 e63d 9ae5 70be 9705 9f3c
000000e0: 4123 0abe 776f 04be 1db7 02be b9a2 4ebd
000000f0: 0b5c 8a3e a4a1 5ebd 1309 54be f26d ed3c
00000100: ae3c 23be ccbf 44be 0899 5abe 1cba d5bd
00000110: 3436 a63d b008 0dbe 58d9 bf3d f548 58bc
00000120: 6a0f 60be fd9e f0bd 519a fcbd d14a 933e
00000130: c697 8c3e 5b08 873d 54b7 873e 8125 f33d
00000140: a808 7cbc 6271 a33e 1b3c e33d 8f2a 5bbe
00000150: a1eb 923d db0c 4fbe 37d7 83be 1b3c 563e
00000160: 2813 dbbc 93b5 5d3c cfb9 453e e887 3cbe
00000170: bcb6 a9be 70d6 223c adf4 1c3e 1869 cb3d
00000180: 8b6d 6b3e 4b0b 4cbe 1869 9cbe 2cde cf3d
00000190: e761 db3b 76e6 3ebe b6d3 7c3e 1e41 533e
000001a0: 622e 1d3d cee8 8abe 763a 23bc 6147 dbbd
000001b0: 4479 a3bd 9e04 69be d245 973c 0522 863c
000001c0: 9438 79be a9f7 9d3d 0c80 853d 9f67 d13d
000001d0: c7de 3d3e b2aa 23be 1ed6 553c fbfa fcbd
000001e0: 146b 8ebe eb2a 9abe ea6a 903c 805b 91be
000001f0: d043 b03d 12fe ffbd 9689 9dbd acca b6bd
00000200: d0fd 163e 0539 893e c58b 2abe dd53 6b3e
00000210: c7b9 db3c a752 29be 1f6c 463e 5c14 853e
00000220: e424 3bbe 21b3 89be 4d07 643e 09da 5a3e
00000230: 1bfe 573e 0b88 1fbc c7cb 0abe 8d4d ce3c
00000240: 8ad6 983d 921a 853e 4562 633e e5c0 c3bd
00000250: b228 4fbd f9e7 d7bc 8c9f b33d da44 49be
00000260: 6b37 103d 6660 3f3e 9bb2 1abe 8a6e a73d
00000270: e15e febc 7ae8 c7bd 8d27 2fbc 68f0 94be
00000280: 952d 8fbe 2194 9cbe 2729 3bbe 6563 eebe
00000290: e568 37be d889 2ebf 8d22 4b3f e7fb 463e
000002a0: c2f0 a3be 5fd7 85bd 8233 953d b8b7 32be
000002b0: a319 3b3e da4a 0bbf c66c c73e dd62 ad3e
000002c0: b61d 43be 23c0 063d 25ae 38bd cbe2 c7bd
000002d0: e59f 13bf 188d 74be ba32 6abe 763f 3abe
000002e0: 08b6 083f fb1f 11bf 945b c73c 3a07 523e
000002f0: e9b9 0ebe bf86 36bd da7d 973e 6bb9 9cbe
00000300: d7d3 d73d a69c a93d bdcd bc3e eec6 0e3e
00000310: 9d24 d23d 2464 3e3e 638f 833d 4067 be3d
00000320: 39a3 203e aa31 38be 8888 623e b564 1f3e
00000330: aba6 3abc 783a b0bd 8285 c1bd 93d4 ca3e
00000340: 25b8 613b 3baf 8abd 7e1e dc3d 1eb8 193d
00000350: e577 733e 7cee 84be 6471 8bbe ee1b 96bd
00000360: 74ee 2f3d 540f 9bbe 0978 5cbe 8e3f 9fbc
00000370: 4e1e 933d 3573 42bd 279e b4be dca9 9a3c
00000380: 2213 bc3d 1595 ffbd 7f16 9e3e a3bf c13d
00000390: 2bc9 c83d e184 32be 248a 8fbe 9e09 8c3e
000003a0: ce83 b03d 63a4 9cbe e290 6d3e daf8 4dbc
000003b0: 9d20 a93d c7e7 4ebe 8979 80bd 6bad b8bd
000003c0: 18bc 32bd 4c95 ee3e c673 b33e c351 4ebe
000003d0: b35a 243e 64f5 44be 2402 0c3e 7e90 14be
000003e0: 3f00 26be ed19 d03e fd57 8e3e 20d4 25be
000003f0: 1543 a23e 4d06 8abe 84e6 8b3e 2fb7 0d3e
