workspace/suphx-reward-shaping/weights/numpy/weights_no_logistic_TD_0_layer_2.npy (npy, 640 bytes, 1 tensors)

array f4 [32, 4]
0	0x3ec4426e	0.38331932
1	0xbe3c0cbf	-0.18364237
2	0x3eb6f2a2	0.3573199
3	0x3dc4c5c4	0.09608033
4	0xbe6cdb1b	-0.23130457
5	0xbd5769fc	-0.05259131
6	0xbd667f09	-0.056273494
7	0xbe66f04f	-0.22552608
8	0x3e0c54e7	0.13704263
9	0x3f4fe564	0.812094
10	0xbe929103	-0.2862626
11	0xbea3f643	-0.3202382
12	0x3eafc281	0.34328082
13	0xbd260fb1	-0.04054231
14	0x3dc45a2a	0.0958751
15	0x3dbd0c90	0.09230912
16	0x3ec5ccf7	0.38632938
17	0xbea1a2d9	-0.31569555
18	0xbe5eb4f9	-0.21748723
19	0x3def2eeb	0.11678871
20	0x3ea01755	0.312678
21	0x3e484f50	0.19561505
22	0xbea11fca	-0.31469566
23	0xbd8e76aa	-0.06956227
24	0xbe0dcdb2	-0.13847998
25	0x3e619400	0.22029114
26	0xbe1951df	-0.14972638
27	0x3e9f25ba	0.3108347
28	0xbe71ce87	-0.2361394
29	0x3ddcdb1c	0.10783979
30	0x3e83e8e4	0.2576362
31	0xbe934fa9	-0.28771713
32	0xbc754438	-0.014969878
33	0xbe16e995	-0.14737542
34	0xbb89c859	-0.0042047915
35	0xbec50f73	-0.3848835
36	0x3d86d221	0.06583048
37	0xbeca2fb6	-0.39489526
38	0x3dd39bcb	0.103324495
39	0xbebd5c91	-0.36984685
40	0xbf14b539	-0.58089024
41	0x3d1754de	0.03694617
42	0x3e088b6a	0.13334432
43	0x3eef6b2c	0.46761453
44	0xbd507877	-0.050896134
45	0xbe1dbc18	-0.15403783
46	0xbeabec00	-0.3357849
47	0xbd0b77f8	-0.034049958
48	0xbe8e37b1	-0.27776864
49	0xbe6016bc	-0.21883672
50	0x3e88a31a	0.26686937
51	0x3d08f613	0.0334378
52	0x3e3317f6	0.17489609
53	0xbe9cbd40	-0.30613136
54	0xbec1f7a7	-0.37884256
55	0x3ddc7329	0.107641526
56	0xbe7838c3	-0.24240403
57	0x3e54fa89	0.20798697
58	0xbeb6368c	-0.3558849
59	0x3d86114e	0.06546269
60	0xbd8ee492	-0.0697719
61	0x3e761b65	0.24033888
62	0x3e7c856c	0.24660271
63	0xbcef65df	-0.02922338
64	0x3d02d03c	0.03193687
65	0xbe25bad5	-0.16184552
66	0x3e3f14f3	0.18660335
67	0xbe363564	-0.17793804
68	0x3e0978fb	0.13425057
69	0xbe826d57	-0.25474045
70	0x3e812453	0.25223026
71	0x3ea780f9	0.32715586
72	0x3ea287b6	0.31744164
73	0x3e8b6a55	0.27229562
74	0x3e8f5826	0.2799694
75	0xbdb267d6	-0.087112114
76	0x3dcbea8b	0.09956845
77	0x3ed0e65b	0.40800747
78	0xbeabfb64	-0.33590233
79	0xbe43511f	-0.19073914
80	0x3e63d772	0.22250155
81	0x3e1467ad	0.14492674
82	0x3dae5014	0.085113674
83	0x3d46b37d	0.048511017
84	0xbeca17fb	-0.3947142
85	0xbea68a92	-0.32527596
86	0xbecdc31b	-0.40187916
87	0x3ea3845a	0.31936914
88	0xbe614c81	-0.2200184
89	0x3e1821eb	0.14856689
90	0xbea195e3	-0.31559667
91	0x3e351c95	0.17686684
92	0xbe0bbc56	-0.13646063
93	0xbe59052a	-0.21193376
94	0x3dfe12e2	0.12405945
95	0xbe6565e3	-0.22402148
96	0xbe71d8df	-0.23617886
97	0x3eafd798	0.34344172
98	0x3e4fe3ef	0.20301794
99	0x3d94af38	0.07259983
100	0x3e6a4a7e	0.22879979
101	0xbea53bfe	-0.32272333
102	0x3de6224a	0.11237009
103	0x3e5d4768	0.2160927
104	0x3e62a931	0.22134854
105	0xbdfbda51	-0.122975
106	0xbeafb410	-0.34317064
107	0x3e10de1b	0.14147227
108	0x3e37bb83	0.17942624
109	0xbe4c6d9b	-0.19963686
110	0x3eaa1104	0.33216107
111	0xbecb0a6b	-0.39656386
112	0xbd8837e9	-0.06651289
113	0xbeb9761a	-0.36222917
114	0xbdbe17e5	-0.09281901
115	0xbeadcc63	-0.33944997
116	0xbb3acdfe	-0.0028504129
117	0x3ec43d98	0.38328242
118	0x3e480bd3	0.1953576
119	0xbd95baae	-0.07310997
120	0xbe3406c9	-0.17580713
121	0xbe97c347	-0.29641172
122	0xbd6f8ebb	-0.058485728
123	0xbb166f9e	-0.0022954713
124	0x3eaf683a	0.34259206
125	0xbe51ecaf	-0.20500444
126	0xbac12081	-0.0014734418
127	0xbe1713a2	-0.14753583
