workspace/suphx-reward-shaping/weights/numpy/weights_no_logistic_TD_6_layer_2.npy (npy, 640 bytes, 1 tensors)

array f4 [32, 4]
0	0x3f10b009	0.5651861
1	0xbe6cf14c	-0.23138922
2	0x3ea37249	0.3192313
3	0x3de956f6	0.113935396
4	0xbe8a48d5	-0.2700869
5	0x3e1a0db1	0.15044285
6	0x3b7451ba	0.0037280158
7	0xbe8d8065	-0.2763702
8	0x3e8b12f0	0.27162886
9	0x3f055caf	0.5209455
10	0x3d885619	0.06657047
11	0x3e1de761	0.15420295
12	0x3f112fc5	0.56713516
13	0xbdc6f9cd	-0.097156145
14	0xbccccde0	-0.025000513
15	0x3e118c78	0.14213741
16	0x3ebe3c68	0.3715546
17	0xbe9a0e1c	-0.3008889
18	0xbe4fc303	-0.20289235
19	0x3e069f82	0.13146785
20	0x3e938b50	0.28817225
21	0x3e391e9f	0.18078087
22	0xbeaa36b2	-0.33244854
23	0xbde7d645	-0.113201655
24	0xbe1770be	-0.14789101
25	0x3e8be5a5	0.27323642
26	0xbde1269f	-0.109936945
27	0x3e97e016	0.29663152
28	0xbe7a6bfb	-0.24455254
29	0x3e22ca7c	0.15897554
30	0x3eb894ab	0.36050925
31	0xbe7eb802	-0.24874881
32	0xbc54e6dd	-0.012994495
33	0xbdd3deea	-0.10345252
34	0x3d3c6a37	0.045999732
35	0xbeb69b9a	-0.3566559
36	0x3d492f97	0.04911765
37	0xbeb50d07	-0.35361502
38	0x3e0c5224	0.13703209
39	0xbea9a144	-0.33130848
40	0x3d1169e8	0.03550139
41	0x3ed83248	0.42225862
42	0xbea3424f	-0.31886527
43	0xbe6deeae	-0.2323558
44	0x3c6e8bbe	0.014559684
45	0xbda227f1	-0.079177745
46	0xbea275c6	-0.3173048
47	0x3d10db39	0.035365317
48	0xbeb8845b	-0.3603848
49	0xbe3c1cd9	-0.1837038
50	0x3eb31e44	0.34984028
51	0x3d8b4dae	0.068019256
52	0x3e6d3023	0.23162894
53	0xbe95860c	-0.29203832
54	0xbeb32ca7	-0.34995005
55	0x3d7e6f83	0.062118065
56	0xbe1c8ccd	-0.15288086
57	0x3ebf75f4	0.3739468
58	0xbeb2e641	-0.34941295
59	0x3e11d4a7	0.14241277
60	0xbe00e384	-0.1258679
61	0x3eaf9da0	0.34299946
62	0x3e906892	0.2820478
63	0x3c8eb640	0.017420888
64	0x39566f75	0.00020450151
65	0xbe1e444d	-0.15455742
66	0x3e6e2788	0.23257267
67	0xbe36a7b3	-0.1783741
68	0x3e058567	0.1303917
69	0xbe902609	-0.2815402
70	0x3eba182a	0.3634656
71	0x3ed0715a	0.4071148
72	0x3e806835	0.25079504
73	0x3e9a4ee6	0.3013832
74	0x3e9ef78f	0.31048247
75	0xbdff9459	-0.12479467
76	0x3d11080a	0.035408057
77	0x3eaedd1e	0.34153074
78	0xbec0a789	-0.3762782
79	0xbe7a617c	-0.2445125
80	0x3e3f8527	0.18703137
81	0x3e4f8abb	0.20267765
82	0xb947bb0f	-0.00019047804
83	0x3d71f0e9	0.05906764
84	0xbeca17fb	-0.3947142
85	0xbea68a92	-0.32527596
86	0xbecdc31b	-0.40187916
87	0x3ea3845a	0.31936914
88	0xbe614c81	-0.2200184
89	0x3e1821eb	0.14856689
90	0xbea195e3	-0.31559667
91	0x3e351c95	0.17686684
92	0xbc870512	-0.01648191
93	0xbebcfcb2	-0.3691154
94	0x3eb10043	0.34570512
95	0xbe829dc1	-0.25510982
96	0xbf395780	-0.7239914
97	0x3f269ca5	0.6508277
98	0x3d8de1ce	0.069278345
99	0x3e90d0fe	0.28284448
100	0x3e80f7b9	0.25188997
101	0xbeb8b521	-0.3607569
102	0x3e0832ad	0.13300581
103	0x3e443016	0.19158968
104	0x3e6b5560	0.22981787
105	0xbe069359	-0.13142146
106	0xbead85eb	-0.33891234
107	0x3e01a67c	0.12661165
108	0x3e5fc388	0.21851933
109	0xbe21e6fc	-0.1581077
110	0x3ebdd4e7	0.37076494
111	0xbeb59343	-0.35463914
112	0x3f15f0ac	0.5857036
113	0x3d4d3976	0.050103627
114	0x3e158ba1	0.14604045
115	0xbf41f4fc	-0.7576444
116	0xbd4108f0	-0.047127664
117	0x3ebae996	0.36506337
118	0x3e390d1f	0.18071412
119	0xbe2c1041	-0.16803075
120	0xbe4db5a2	-0.20088819
121	0xbe8e50da	-0.2779606
122	0x3d5720e3	0.052521598
123	0xbd1789ba	-0.03699658
124	0x3eaf683a	0.34259206
125	0xbe51ecaf	-0.20500444
126	0xbac12081	-0.0014734418
127	0xbe1713a2	-0.14753583
