workspace/suphx-reward-shaping/numpy/weights_no_logistic_TD_1_layer_1.npy (npy, 4224 bytes, 1 tensors)

array f4 [32, 32]
0	0xbbe5164c	-0.0069911834
1	0x3e88c7bf	0.26714894
2	0xbe5e418e	-0.21704695
3	0x3da397cf	0.079879396
4	0xbe9ad58c	-0.30241048
5	0x3e8df093	0.27722606
6	0x3d6be979	0.057595704
7	0x3e6d92c9	0.23200525
8	0xbe8581cc	-0.2607559
9	0x3e206e1e	0.15667006
10	0xbe433899	-0.19064559
11	0x3e963e08	0.293442
12	0x3e0f9761	0.1402259
13	0xbd39b1f0	-0.04533571
14	0xbc51594e	-0.01277764
15	0xbc21f9e2	-0.009886237
16	0x3cc35394	0.023843564
17	0x3e84e314	0.25954497
18	0xbe60e235	-0.21961291
19	0xbd5e0532	-0.054204173
20	0x3dc60054	0.09668031
21	0xbe1c8bcc	-0.15287703
22	0xbe190fe5	-0.1494747
23	0x3e926b4a	0.2859748
24	0x3e09811f	0.13428162
25	0x3dcfaca5	0.10140351
26	0x3de5a79f	0.11213612
27	0xbe1f761b	-0.15572397
28	0xbe179896	-0.148043
29	0xbe1d4505	-0.1535836
30	0xbd92e590	-0.07172692
31	0xbe0ef3a0	-0.13960123
32	0x3e7a132d	0.24421377
33	0x3e8f2d22	0.2796412
34	0xbe8e5b48	-0.27804017
35	0xbe0be597	-0.136618
36	0xbe2c274c	-0.16811866
37	0x3ce5e56f	0.028063504
38	0x3e15e6fd	0.14638896
39	0x3d33fbe6	0.0439414
40	0x3e24a807	0.16079722
41	0x3e5fbef7	0.21850191
42	0xbdd953cc	-0.10611686
43	0xbe55463b	-0.20827572
44	0xbd0ef7e5	-0.03490438
45	0x3e8feeba	0.2811182
46	0xbdc2bfc5	-0.095092334
47	0x3dd29ec8	0.10284191
48	0xbdebe071	-0.11517418
49	0xbd61cbd4	-0.055126026
50	0xbe95b440	-0.29239082
51	0x3e8fdde3	0.28098974
52	0xbe5ad76e	-0.21371242
53	0x3de6e703	0.11274531
54	0xbe70e59a	-0.23525086
55	0x3d086b11	0.03330523
56	0xbdd1ed3c	-0.10250327
57	0xbe2bfb8d	-0.16795178
58	0xbe02b71d	-0.12765165
59	0xbd4ea2b9	-0.050448153
60	0x3e90abc0	0.28256035
61	0xbd86602d	-0.06561313
62	0xbe4314d9	-0.19050921
63	0x3ced6df2	0.02898309
64	0xbe2f60d0	-0.17126775
65	0xbe53af52	-0.20672348
66	0xbe086c86	-0.13322648
67	0xbe5e8a12	-0.21732357
68	0x3da63634	0.08115807
69	0xbe32bb8a	-0.17454353
70	0x3e2b59bc	0.1673345
71	0xbb902b34	-0.0043996815
72	0xbe84ba04	-0.2592317
73	0xbddaf2b9	-0.10690827
74	0xbdf5a607	-0.11994558
75	0x3e997e16	0.29979008
76	0x3e896c3e	0.26840395
77	0x3d7ceef8	0.061751336
78	0x3e976210	0.29567003
79	0x3e199520	0.14998293
80	0xbcc7dc9f	-0.024397193
81	0x3e9b9597	0.30387565
82	0x3dcebafe	0.1009426
83	0xbe890b03	-0.26766214
84	0x3d75b11d	0.05998336
85	0xbe4f0cdb	-0.20219748
86	0xbe83d737	-0.25750133
87	0x3e4867fc	0.19570917
88	0x3d17664c	0.036962792
89	0xbcb66c91	-0.022268565
90	0x3e3137c0	0.17306423
91	0xbe2d8697	-0.16945873
92	0xbea5ed3c	-0.32407558
93	0x3c7bddc9	0.015372702
94	0x3e248dff	0.16069792
95	0x3dcb6918	0.099321544
96	0x3e6b6d8b	0.22991006
97	0xbe4c0b4b	-0.19926183
98	0xbe9c6918	-0.3054893
99	0x3dcfde2c	0.10149798
100	0x3bdb61e7	0.0066950205
101	0xbe3ee676	-0.18642601
102	0x3e7cd3b6	0.24690136
103	0x3e53411e	0.20630309
104	0x3d1d2e62	0.038374312
105	0xbe8ae8ce	-0.2713074
106	0xbc233a76	-0.009962669
107	0xbddb4761	-0.10706974
108	0xbda37944	-0.07982114
109	0xbe69049e	-0.22755668
110	0x3c9745d2	0.01846591
111	0x3c862205	0.016373644
112	0xbe793894	-0.24337989
113	0x3d9df7a9	0.07713253
114	0x3d85800c	0.06518564
115	0x3dd1679f	0.10224842
116	0x3e3ddec7	0.18542014
117	0xbe23aab2	-0.15983084
118	0x3c55d61e	0.013051538
119	0xbdfcfafb	-0.12352558
120	0xbe8e6b14	-0.2781607
121	0xbe9a2aeb	-0.3011087
122	0x3c906aea	0.017629106
123	0xbe915b80	-0.2839012
124	0x3db043d0	0.08606684
125	0xbdfffe12	-0.12499632
126	0xbd9d8996	-0.07692258
127	0xbdb6caac	-0.08925375
128	0x3e16fdd0	0.1474526
129	0x3e85cda8	0.26133466
130	0xbe1bf5ad	-0.15230437
131	0x3e3e9611	0.18611933
132	0x3cdbb9c7	0.026821984
133	0xbe562e1e	-0.2091603
134	0x3e0b7ab7	0.13621031
135	0x3e919aec	0.2843851
136	0xbe394b75	-0.18095191
137	0xbe7f2658	-0.2491697
138	0x3e83d844	0.25750935
139	0x3e670819	0.22561683
140	0x3e6882e4	0.22706181
141	0xbd0bda0f	-0.034143504
142	0xbe20f42c	-0.15718144
143	0x3d8a0e6c	0.06741032
144	0x3d9914d3	0.07474675
145	0x3e6fa3a5	0.23402269
146	0x3e5befdb	0.21478216
147	0xbe1d8edf	-0.15386532
148	0xbd8abff1	-0.06774891
149	0xbcd7e7f9	-0.02635573
150	0x3db39f8c	0.087706655
151	0xbe1b0a06	-0.15140542
152	0x3d319c44	0.043361917
153	0x3e2d141d	0.16902204
154	0xbe1ab29b	-0.15107195
155	0x3dbe1d9a	0.0928299
156	0x3b452150	0.003007967
157	0xbdd3f573	-0.1034955
158	0x3c49b494	0.01231112
159	0xbe94f068	-0.29089665
160	0xbe8f2d95	-0.27964464
161	0xbe77c379	-0.2419566
162	0xbdc0c59b	-0.0941269
163	0xbddaba27	-0.10680037
164	0xbe3768e5	-0.17911108
165	0xbe129d35	-0.14317782
166	0x3e84b344	0.2591802
167	0x3d52e8a6	0.051491402
168	0xbe8d3485	-0.27579132
169	0xbc59601f	-0.013267546
170	0x3e095d16	0.13414416
171	0xbe2976b4	-0.16549188
172	0xbe85988b	-0.26092944
173	0xbe807188	-0.25086617
174	0x3de13f40	0.10998392
175	0xbe067a6e	-0.1313264
176	0xbe37ac8f	-0.1793692
177	0xbe556b2a	-0.20841661
178	0x3e07438f	0.13209365
179	0x3e67020d	0.22559376
180	0xbe84dc5f	-0.2594938
181	0xbe748d18	-0.23881948
182	0xbe6a32ba	-0.22870913
183	0x3de3e46b	0.11127552
184	0x3ca41167	0.02002783
185	0xbe97e91b	-0.29670033
186	0x3cc75b94	0.02433566
187	0x3e7735d3	0.24141626
188	0x3de1d3dd	0.11026738
189	0xbe830170	-0.25587034
190	0x3e8a72f1	0.27040818
191	0xbe9cb96b	-0.30610213
192	0x3dbd8871	0.0925454
193	0x3df4c527	0.11951666
194	0x3e9e8c6d	0.3096651
195	0x3e3f8e97	0.18706737
196	0x3dd2249d	0.1026089
197	0x3e345263	0.17609553
198	0x3c1a1529	0.009404459
199	0x3dcfe255	0.10150591
200	0x3db56162	0.08856465
201	0xbe23160d	-0.1592638
202	0x3e8bc328	0.2729733
203	0x3e24a43d	0.16078277
204	0xbd6267e6	-0.055274867
205	0xbe14925e	-0.1450896
206	0xbe0c6f3b	-0.13714306
207	0x3e8c835d	0.27443972
208	0xbcb50ae1	-0.022099914
209	0xbdbe6330	-0.09296262
210	0x3cbd769c	0.023127846
211	0x3d1d9fec	0.03848259
212	0x3e454349	0.19263949
213	0xbe84ee7c	-0.259632
214	0xbe8b7164	-0.27234948
215	0xbcdd8085	-0.027038822
216	0x3c0ff5da	0.008786643
217	0xbe9155a0	-0.2838564
218	0xbe5e49e4	-0.21707875
219	0x3c470254	0.012146551
220	0xbe39f92a	-0.18161455
221	0xbe5bc466	-0.21461639
222	0xbe1c4e92	-0.15264347
223	0x3c9aa9dc	0.018879823
224	0x3da2e03d	0.07952926
225	0xbe2d9667	-0.16951905
226	0xbdd23797	-0.10264509
227	0xbe83b214	-0.257218
228	0x3dc8c92b	0.09803995
229	0xbddb60aa	-0.107117966
230	0xbf31eeec	-0.6950519
231	0x3f36b8b5	0.7137559
232	0xbe8b74b2	-0.2723747
233	0xbe95fdd7	-0.29295227
234	0x3e767fa7	0.24072133
235	0xba26bccf	-0.0006360532
236	0xbe7d98df	-0.24765347
237	0xbdcb4df7	-0.0992698
238	0xbef1d520	-0.47232914
239	0xbdfebcb2	-0.124383345
240	0xbe266ca2	-0.16252378
241	0x3e9bc88f	0.30426452
242	0x3f2317d7	0.6370825
243	0x3d88d414	0.06681076
244	0x3e43295c	0.19058746
245	0xbe44f564	-0.19234234
246	0x3e0c0224	0.13672692
247	0x3ecf5ec8	0.40502
248	0xbedb4e3f	-0.42833135
249	0x3e9857d4	0.29754508
250	0x3e8c45a2	0.27396876
251	0xbe0e4ab5	-0.13895686
252	0xbe602c2d	-0.21891852
253	0xbe742cdb	-0.23845236
254	0x3eebbcdb	0.46042523
255	0x3e0db72f	0.1383941
