workspace/suphx-reward-shaping/numpy/weights_no_logistic_TD_5_layer_1.npy (npy, 4224 bytes, 1 tensors)

array f4 [32, 32]
0	0xbbe5164c	-0.0069911834
1	0x3e88c7bf	0.26714894
2	0xbe5e418e	-0.21704695
3	0x3da397cf	0.079879396
4	0xbe9ad58c	-0.30241048
5	0x3e8df093	0.27722606
6	0x3d6be979	0.057595704
7	0x3e6d92c9	0.23200525
8	0xbe8581cc	-0.2607559
9	0x3e206e1e	0.15667006
10	0xbe433899	-0.19064559
11	0x3e963e08	0.293442
12	0x3e0f9761	0.1402259
13	0xbd39b1f0	-0.04533571
14	0xbc51594e	-0.01277764
15	0xbc21f9e2	-0.009886237
16	0x3cc35394	0.023843564
17	0x3e84e314	0.25954497
18	0xbe60e235	-0.21961291
19	0xbd5e0532	-0.054204173
20	0x3dc60054	0.09668031
21	0xbe1c8bcc	-0.15287703
22	0xbe190fe5	-0.1494747
23	0x3e926b4a	0.2859748
24	0x3e09811f	0.13428162
25	0x3dcfaca5	0.10140351
26	0x3de5a79f	0.11213612
27	0xbe1f761b	-0.15572397
28	0xbe179896	-0.148043
29	0xbe1d4505	-0.1535836
30	0xbd92e590	-0.07172692
31	0xbe0ef3a0	-0.13960123
32	0x3e7a132d	0.24421377
33	0x3e8f2d22	0.2796412
34	0xbe8e5b48	-0.27804017
35	0xbe0be597	-0.136618
36	0xbe2c274c	-0.16811866
37	0x3ce5e56f	0.028063504
38	0x3e15e6fd	0.14638896
39	0x3d33fbe6	0.0439414
40	0x3e24a807	0.16079722
41	0x3e5fbef7	0.21850191
42	0xbdd953cc	-0.10611686
43	0xbe55463b	-0.20827572
44	0xbd0ef7e5	-0.03490438
45	0x3e8feeba	0.2811182
46	0xbdc2bfc5	-0.095092334
47	0x3dd29ec8	0.10284191
48	0xbdebe071	-0.11517418
49	0xbd61cbd4	-0.055126026
50	0xbe95b440	-0.29239082
51	0x3e8fdde3	0.28098974
52	0xbe5ad76e	-0.21371242
53	0x3de6e703	0.11274531
54	0xbe70e59a	-0.23525086
55	0x3d086b11	0.03330523
56	0xbdd1ed3c	-0.10250327
57	0xbe2bfb8d	-0.16795178
58	0xbe02b71d	-0.12765165
59	0xbd4ea2b9	-0.050448153
60	0x3e90abc0	0.28256035
61	0xbd86602d	-0.06561313
62	0xbe4314d9	-0.19050921
63	0x3ced6df2	0.02898309
64	0xbd709dbf	-0.05874419
65	0xbe54a24c	-0.20765036
66	0xbd6dbd77	-0.058042016
67	0xbe12afd1	-0.14324881
68	0x3e8e4c16	0.27792424
69	0xbe958b94	-0.29208052
70	0x3ddf5d25	0.10906438
71	0xbe494891	-0.19656588
72	0xbe714e99	-0.23565139
73	0xbde89a4a	-0.11357553
74	0xbddbe5f8	-0.107372224
75	0x3eaeac83	0.3411599
76	0x3ed55a3e	0.41670412
77	0x3d0d10a9	0.034439716
78	0x3e839fd5	0.2570788
79	0x3e6cbedf	0.23119687
80	0x3e331e71	0.17492081
81	0x3e80dad8	0.25166965
82	0xbd85f7d9	-0.06541414
83	0xbe7f8e45	-0.24956615
84	0x3e2d5b82	0.16929439
85	0xbe4f0cdb	-0.20219748
86	0xbe83d737	-0.25750133
87	0x3e3d8d66	0.1851097
88	0x3d8d8f1c	0.069120616
89	0xbd6fe332	-0.05856628
90	0x3bdf40a9	0.006813128
91	0xbe2d8697	-0.16945873
92	0xbe9f41e3	-0.31104955
93	0x3cab741a	0.020929385
94	0x3e8cb83a	0.27484304
95	0x3dcb6918	0.099321544
96	0x3e6b6d8b	0.22991006
97	0xbe4c0b4b	-0.19926183
98	0xbe9c6918	-0.3054893
99	0x3dcfde2c	0.10149798
100	0x3bdb61e7	0.0066950205
101	0xbe3ee676	-0.18642601
102	0x3e7cd3b6	0.24690136
103	0x3e53411e	0.20630309
104	0x3d1d2e62	0.038374312
105	0xbe8ae8ce	-0.2713074
106	0xbc233a76	-0.009962669
107	0xbddb4761	-0.10706974
108	0xbda37944	-0.07982114
109	0xbe69049e	-0.22755668
110	0x3c9745d2	0.01846591
111	0x3c862205	0.016373644
112	0xbe793894	-0.24337989
113	0x3d9df7a9	0.07713253
114	0x3d85800c	0.06518564
115	0x3dd1679f	0.10224842
116	0x3e3ddec7	0.18542014
117	0xbe23aab2	-0.15983084
118	0x3c55d61e	0.013051538
119	0xbdfcfafb	-0.12352558
120	0xbe8e6b14	-0.2781607
121	0xbe9a2aeb	-0.3011087
122	0x3c906aea	0.017629106
123	0xbe915b80	-0.2839012
124	0x3db043d0	0.08606684
125	0xbdfffe12	-0.12499632
126	0xbd9d8996	-0.07692258
127	0xbdb6caac	-0.08925375
128	0x3dcb43e2	0.09925057
129	0x3e84686a	0.25860912
130	0xbe18083e	-0.14846894
131	0x3e3e9611	0.18611933
132	0x3bcef9cc	0.006316399
133	0xbe77fc66	-0.24217376
134	0x3e128a98	0.14310682
135	0x3e8ff315	0.28115144
136	0xbe4273a1	-0.18989421
137	0xbe7f2658	-0.2491697
138	0x3e75bbc9	0.23997416
139	0x3e54b514	0.20772201
140	0x3e6384a8	0.22218573
141	0xbd1cb473	-0.038258027
142	0xbe224ff1	-0.15850808
143	0x3d969414	0.073524624
144	0x3d51ffa9	0.051269207
145	0x3e711d86	0.23546419
146	0x3e10216a	0.14075246
147	0xbe2bb5ec	-0.16768616
148	0xbd80b22b	-0.06283983
149	0xbcd7e7f9	-0.02635573
150	0x3db39f8c	0.087706655
151	0xbe1e8033	-0.15478592
152	0x3d91faeb	0.07127937
153	0x3e3278ec	0.1742894
154	0xbe30073b	-0.17190258
155	0x3dbe1d9a	0.0928299
156	0x3a848ad8	0.001011218
157	0xbdc8a4ec	-0.09797081
158	0x3c1602c0	0.009155929
159	0xbe94f068	-0.29089665
160	0xbe8f2d95	-0.27964464
161	0xbe77c379	-0.2419566
162	0xbdc0c59b	-0.0941269
163	0xbddaba27	-0.10680037
164	0xbe3768e5	-0.17911108
165	0xbe129d35	-0.14317782
166	0x3e84b344	0.2591802
167	0x3d52e8a6	0.051491402
168	0xbe8d3485	-0.27579132
169	0xbc59601f	-0.013267546
170	0x3e095d16	0.13414416
171	0xbe2976b4	-0.16549188
172	0xbe85988b	-0.26092944
173	0xbe807188	-0.25086617
174	0x3de13f40	0.10998392
175	0xbe067a6e	-0.1313264
176	0xbe37ac8f	-0.1793692
177	0xbe556b2a	-0.20841661
178	0x3e07438f	0.13209365
179	0x3e67020d	0.22559376
180	0xbe84dc5f	-0.2594938
181	0xbe748d18	-0.23881948
182	0xbe6a32ba	-0.22870913
183	0x3de3e46b	0.11127552
184	0x3ca41167	0.02002783
185	0xbe97e91b	-0.29670033
186	0x3cc75b94	0.02433566
187	0x3e7735d3	0.24141626
188	0x3de1d3dd	0.11026738
189	0xbe830170	-0.25587034
190	0x3e8a72f1	0.27040818
191	0xbe9cb96b	-0.30610213
192	0x3e0aca59	0.13553752
193	0x3df15c08	0.11785132
194	0x3eb80607	0.35942098
195	0x3e118c20	0.1421361
196	0x3e056ccd	0.13029785
197	0x3e0f2041	0.13977148
198	0xbc13db48	-0.009024449
199	0x3d811a7e	0.06303881
200	0x3e36551f	0.17805909
201	0xbe346af5	-0.17618926
202	0x3e847d09	0.25876644
203	0x3df2a6ec	0.11848244
204	0xbdcd4cb8	-0.100243986
205	0xbdee0859	-0.11622686
206	0xbe706308	-0.23475277
207	0x3e80bd25	0.25144306
208	0x3cd021d8	0.025406763
209	0xbd13b160	-0.03605783
210	0x3dfaddbd	0.122493245
211	0xbe0a28fb	-0.13492195
212	0x3e81ab3f	0.25325963
213	0xbe84ee7c	-0.259632
214	0xbe8b7164	-0.27234948
215	0xbd3c4dab	-0.045972507
216	0x3c191bf1	0.009345041
217	0xbe45c965	-0.19315107
218	0xbe35b620	-0.17745256
219	0x3c470254	0.012146551
220	0xbd7e424b	-0.06207494
221	0xbe5bc466	-0.21461639
222	0xbe686fb0	-0.22698855
223	0x3c9aa9dc	0.018879823
224	0x3db6cf64	0.08926275
225	0xbdfe8836	-0.12428324
226	0x3e80e432	0.251741
227	0x3cfed97f	0.03110957
228	0x3d9f25d9	0.07770891
229	0xbd328741	-0.04358602
230	0x3d9cd5d8	0.07657975
231	0x3e582960	0.21109533
232	0x3c9b090f	0.018925218
233	0xbe95fdd7	-0.29295227
234	0x3e8bafeb	0.27282652
235	0xba26bccf	-0.0006360532
236	0x3d512672	0.051062055
237	0xbd925ff3	-0.07147207
238	0x3d9eea73	0.077595614
239	0xbe022b47	-0.12711821
240	0xbcda06ac	-0.02661451
241	0x3ea767a9	0.32696274
242	0x3e833100	0.25623322
243	0x3cfc607f	0.030807732
244	0x3df2ade0	0.1184957
245	0xbe44f564	-0.19234234
246	0x3e0c0224	0.13672692
247	0xbe5714ec	-0.21004075
248	0xbdd435bf	-0.10361814
249	0x3e327fc4	0.17431551
250	0x3e743a94	0.23850471
251	0xbe0e4ab5	-0.13895686
252	0x3e953bc3	0.29147157
253	0xbe742cdb	-0.23845236
254	0x3e97ffb0	0.29687262
255	0x3e0db72f	0.1383941
